DL103/Main Content/Code - Basic Workshop/01. CONCRETE STRENGTH/pytorch/concrete_strength_model/model.pth (torch, 5591 bytes, 5 tensors)

0.weight f4 [50, 8]
00000000: a35b 3f3e 5939 af3e 3fc8 bb3e bc2c e93d
00000010: 8101 f5be 9c78 c13d 111f c2bd 75dd 1a3f
00000020: 47fa 8bbd 0037 babd a38d fdbd e3f3 8a3e
00000030: 8cd9 643e 0e90 86be 5293 64be 7d93 b83c
00000040: 3004 e73d f63e 013e 746b 2cbd da74 993b
00000050: 38be 85bc 9d5a a6ba 9a21 c2bd 6c53 f93e
00000060: d71c 41be f56b cd3d ff53 2ebe b469 d9be
00000070: 6459 2e3d c601 273e fe34 28be bbaa 373d
00000080: fd44 debd 5664 0abd c3f3 58be 37ae 62bd
00000090: 237b ea3d ec88 f3bd 62ad e0bd 50f1 f03e
000000a0: 75b9 6b3d d193 113e db05 93bc e29f b7bd
000000b0: 7324 fbbd 0cc1 a53c 90e7 683d d03c 813f
000000c0: fac3 e53d ba50 8ebe 8ae1 2e3e 5308 8cbe
000000d0: 0643 0fbe 687e bf3d a8a4 e5bd a4c0 c43c
000000e0: 01d4 2b3f 2fdc d83e b34f a03e 5d8c 04bf
000000f0: 004f e23e e201 f73d 04fd a83e 9bc1 463e
00000100: 8900 52be b5ba b7bd f267 d5bd adab c9be
00000110: 1ed7 513e da8d db3e b52b 4c3e c54e ae3e
00000120: fc8d 2d3e b80c 103d 5a99 95bd 08bb cf3e
00000130: bd96 71be 1a0b 723e 127d edbc cdc6 53be
00000140: b74a 2e3d 4bbd 883e f03f b8be aa97 d1be
00000150: 6c38 90bd e3d6 c3be 5308 8e3d 08d2 983b
00000160: 6e74 01bf eef7 b3be 06be 7cbd 6b68 c6bd
00000170: 306e 963e 27cd ebbd 937b b03e d96b 603e
00000180: 00f3 a53e be24 70bc b92f 073e 7423 1f3e
00000190: 609f 36be 32c8 a03d 6d57 113e 6b21 ae3e
000001a0: b9ee a03e a11d 8dbe 3fb5 f33d be14 133c
000001b0: 7eed 8dbe 548b 733d 1de2 8cbc 2318 ddbe
000001c0: d57c b7bd 67bd ca3e 2301 453e dc53 1ebe
000001d0: cfac dcbc 75b7 81be 5fb5 c2bd b52b a63d
000001e0: 251a acbd bb7d 303e 3003 c33e 7cd1 6a3e
000001f0: 4a2c b13d b537 8e3e 1089 afbe 1e02 22be
00000200: c84a 23be 6c2e 253e b6b0 e1bd 734f 45be
00000210: 85c3 763d 2e3f d43e 67c7 1f3e 5156 7a3e
00000220: 84f5 70be 521a bc3d a916 bdbd fa60 05bd
00000230: 6e46 d13c 72c8 c13e 59a6 673e 364b a43d
00000240: 33e2 8fbe c98d 963d 5d81 f33e e010 b63e
00000250: d548 84be a353 f9be 6c76 5f3e cabe d4bb
00000260: 5e11 c73e 9ec9 453e 363e 3d3e a057 033e
00000270: aabb 2e3d 73aa 3a3e 961e c6bc ea0e 073f
00000280: 3fa9 abbe 7074 28bd d5c9 183e 63b3 abbd
00000290: 96e2 0a3e 4aa5 a43e 196a 433e 8281 b3bc
000002a0: 51e5 0ebf 4351 29be 5de9 2f3e b7f3 06bf
000002b0: 49f8 21bf cc34 d4bc fdea 6abe 48c2 7dbf
000002c0: 49c2 483e 6a19 393d f630 a5be e1da 5abe
000002d0: 4f59 813e d1c4 bc3e 8764 2abe 5a2d 0d3d
000002e0: b236 54bd 039f 58be 3046 e7be 5b9c 763e
000002f0: 50e7 5abd ab49 bbbe 726c d7be c1c6 433d
00000300: b92c 0ebf ba4a 6dbd 0a8f b63d d9a6 ff3e
00000310: f951 d33e f19a 203e 5588 313e a3ac 15be
00000320: 7b26 59be 4fd1 b93c 3e32 5dbd 1518 e53c
00000330: 9309 2a3d 16c5 1ebe 75ac e6be 8055 fbbd
00000340: f23e cf3d 92ee a73e 3205 8bbe 468f 07bf
00000350: d3d0 673e c44b aebe e6b8 09be bc80 80bf
00000360: fbf6 543e 4df7 0d3e 46df 143f ce60 13bf
00000370: 699a 2abe 697d 9c3e 81a0 293e 13a6 a53c
00000380: 3358 233d 5c12 973e fd07 00be ef1d eabe
00000390: a3d6 04be 8253 f0bd c375 003e 6c88 1e3e
000003a0: 59cd 8b3e de3e 693c a6e5 cdbd a907 59bc
000003b0: 58a1 08bd 1cc4 aa3b e263 b83c 1ef6 123f
000003c0: e115 91be 93f2 e53e 6c14 2fbe 9be9 bfbd
000003d0: 697e 7abd 01da a3be 1204 363d f37f 9dbc
000003e0: 2456 ce3d d8fa e3bd da5d adbe 66ba 18be
000003f0: d591 3ebc 068f a33e 2134 183e a748 3cbd
0.186873 0.3422344 0.36676213 0.113854855 -0.4785271 0.094468325 -0.09478582 0.60494167
-0.06834846 -0.09092522 -0.12380531 0.27139196 0.22348613 -0.2628178 -0.22321823 0.022531265
0.112800956 0.12621674 -0.042094663 0.0046831192 -0.016326055 -0.00126918 -0.09479065 0.48696458
-0.18858658 0.10030357 -0.1702423 -0.42463458 0.04256572 0.1630927 -0.16426465 0.044840556
-0.10853002 -0.033787094 -0.21186738 -0.055341925 0.11449268 -0.1189135 -0.1097057 0.47059107
0.057549912 0.14216544 -0.017947128 -0.08966042 -0.122628115 0.020233653 0.05686146 1.0096684
0.1121902 -0.27795964 0.17078224 -0.273501 -0.13990411 0.09350282 -0.11213046 0.02401764
0.6712037 0.42355487 0.31310806 -0.5177668 0.44200897 0.12060906 0.33005536 0.19409792
-0.20508017 -0.089711584 -0.104202166 -0.3938879 0.20492217 0.42881662 0.19938548 0.3404447
0.16948694 0.03516838 -0.0730464 0.4057238 -0.23592658 0.23637047 -0.028990302 -0.20681305
0.042551722 0.2670692 -0.3598628 -0.40936023 -0.070420116 -0.38249883 0.069351815 0.0046637096
-0.5056828 -0.35150093 -0.061704658 -0.09687885 0.2938094 -0.11513739 0.3446928 0.2191614
0.32411957 -0.0146571975 0.13201798 0.15540868 -0.17834234 0.07850684 0.14193507 0.3400987
0.3143213 -0.27561668 0.11899804 0.008977113 -0.27720255 0.059459046 -0.017197663 -0.43182477
-0.08959357 0.39597628 0.19238715 -0.15461677 -0.02693787 -0.2533528 -0.0950725 0.08113805
-0.08403424 0.17235462 0.3808837 0.22931474 0.086510256 0.27776876 -0.34284258 -0.1582112
-0.15946496 0.1613099 -0.11020033 -0.19268589 0.060245056 0.41454452 0.1560341 0.2444699
-0.23531157 0.09184708 -0.09232838 -0.032563187 0.025546279 0.3784824 0.2262205 0.08022158
-0.28102264 0.07351262 0.47559634 0.3555975 -0.25836816 -0.48696622 0.21822518 -0.0064924704
0.38880438 0.19315192 0.18480763 0.12826395 0.04265944 0.18229084 -0.024184506 0.5275713
-0.33527562 -0.04112667 0.14920743 -0.08383825 0.13562998 0.32157356 0.19083442 -0.02191234
-0.5581866 -0.16534905 0.17178865 -0.5271563 -0.6326948 -0.025904082 -0.22941203 -0.99124575
0.19605364 0.045190252 -0.32263917 -0.21372558 0.2526345 0.3686891 -0.1663991 0.03446708
-0.051809974 -0.21154408 -0.45170736 0.24083082 -0.053443253 -0.36579642 -0.42074925 0.04779697
-0.5553699 -0.057932593 0.08914001 0.49931982 0.41273478 0.15684105 0.17337163 -0.14616637
-0.21206085 0.022682814 -0.054002993 0.027965585 0.041513037 -0.1550487 -0.4505345 -0.12272167
0.10119428 0.32799202 -0.271524 -0.5295299 0.22638254 -0.3404218 -0.1344944 -1.0039287
0.2079734 0.13863869 0.5815319 -0.5756959 -0.16660465 0.3056443 0.16565134 0.020220792
0.039879035 0.29506195 -0.12503047 -0.45725963 -0.12972502 -0.11734678 0.12544923 0.15481728
0.27305105 0.01423618 -0.100535676 -0.013246455 -0.033356994 0.0052113663 0.022508565 0.57406795
-0.28337005 0.44911632 -0.17097634 -0.093707286 -0.06115571 -0.3200226 0.044437476 -0.01922605
0.10075024 -0.11131829 -0.33860666 -0.14914855 -0.011631449 0.31945056 0.14863636 -0.045967724

0.bias f4 [50]
00000000: 5fd9 403f 00fb 7bbc fcd3 173f 0fd4 8e3d
00000010: 73cc 083f 27ce 523f 9999 8ebe 965e 3a3f
00000020: 0446 a8be 55d2 1dbd 2d91 5dbd 5bed 2fbe
00000030: f173 2a3f 7393 3abe 656d 8f3d 992c ac3e
00000040: 8baf bc3e 8d0b 1fbd 1b2e c23e cbda 2e3f
00000050: 843b babd 6e3d 2abe 24ed 89be deee be3d
00000060: e3c6 adbe b38f d4bd 1d10 413b 590b 893e
00000070: 32a3 283c 67a5 463f bf9f f43e 9521 c1bd
00000080: 82a4 6b3f 22ce e73d 5551 653e bfa5 f8bd
00000090: 4847 193f cebb 26bb 0239 4b3f 1590 08bc
000000a0: 32f2 4e3d 92e9 c6bd c0a7 3d3f 6bd2 06bf
000000b0: 5e1e 5b3f a4c3 8c3e ad3b 243d c063 c23e
000000c0: 2a7f 033d a7d9 7dbd
0.7533168 -0.015379667 0.5930784 0.06974041 0.53436965 0.82345814 -0.2785156 0.72800577
-0.32865918 -0.038530666 -0.05409353 -0.17180388 0.6658316 -0.1822031 0.07003287 0.33627775
0.3685268 -0.038829375 0.379258 0.683026 -0.09093383 -0.16624996 -0.26938736 0.09322904
-0.339408 -0.10378971 0.0029459067 0.2676647 0.010292815 0.77596134 0.47778127 -0.094302334
0.92047894 0.113186136 0.22394307 -0.121409886 0.5987439 -0.002544153 0.7938386 -0.008335133
0.050523944 -0.09712519 0.7408409 -0.5266482 0.8559321 0.27493012 0.040095974 0.37966728
0.032103695 -0.061975148

2.weight f4 [5, 50]
00000000: b8a5 603c 2b9b febd 84a8 babd c223 1bbc
00000010: 5de7 24bc 0aaa 51bd 6eeb 2a3e cc76 5bbd
00000020: 18c0 073e 0f99 93bd 9324 86bd b29e f0bd
00000030: 0018 49bd b4ae 02be b83b 0f3e 961a 5fbd
00000040: c329 b23d cca5 4ebd 8d79 0abd dd70 90bd
00000050: bc4d ca3d 056f 8f3e 5dec 14be 2038 ddbd
00000060: 7b61 3b3d f0f6 df3c e835 943e 0450 a13d
00000070: a4ab 3a3d d453 3fbe 1f07 f53d 667e 51bd
00000080: 9dad 4ebd b478 78bd a3ee 303c f5a0 153e
00000090: 5f18 043e 88f5 84bd 8aec 6fbe e2b5 84bd
000000a0: f7ea 093c 698b d53d f0f8 b23d 54b1 d13c
000000b0: fa64 d0bd 090c 2a3e e93b 71bd 88b6 86bc
000000c0: 5c44 a23d 35c7 013e 9566 563c a8f9 2abd
000000d0: 8d8e 99bd f773 31bd b121 963d 194d 193d
000000e0: a39d 573d 17ec 71bd db37 7e3d e2d8 0d3c
000000f0: 36d6 94bd 45ea 77bd 7a4e 153d 6036 18bc
00000100: 44da d63d 0b08 bc3d 263f 873d 4035 e1bd
00000110: 37f2 0bbe 7226 fd3c 1064 29bc ccb0 12be
00000120: 90de 87bd 26b4 a5bd f0fc babd 203b e43c
00000130: 5773 0a3d 0700 cdbd 1d2d 05be b71d 243d
00000140: 8d72 843d adb7 053d d668 88bb bdf8 41bd
00000150: 247a 04bd c565 24bd 987f a1bd fa60 e4bd
00000160: 9cbb 833d fc73 0dbd 929f 8b3b 151c f3bd
00000170: 2ed1 08bd d4aa 3ebb 8ccb e3bd 7fe9 00be
00000180: a29d 03be a1bb 0bbe ce93 d43d 10be 9abd
00000190: 61be 123f 84ba 103e 9343 e53e d1eb 313d
000001a0: 623b a53e e114 3c3f 2f7e 763d 329e 373f
000001b0: 9b2e a7be 72f8 7dbd 7c5e 0a3e a39f b5be
000001c0: a031 d43e 46f3 30be 8bb0 303e fa2f 79be
000001d0: 3f23 753e e3ee 06be cd7c d73e aab9 fe3e
000001e0: 956f 2c3e a9e2 53bf 1d32 023e 4de9 ab3e
000001f0: 4385 d5be b1c4 03be d83b 38bf d92f f03e
00000200: 1917 adbb 6df6 023f cc00 9c3e ed84 8d3d
00000210: 2b29 683f a201 513e 0bc3 8e3e f5ef efbe
00000220: d91a ca3e 828e 663e da41 4c3f ea5d 0ebe
00000230: e4c0 b5be 8acb 22bf 2ece e13e b416 13bf
00000240: 5389 2e3f 7b6b 593e 3856 76bc 0eec b9bf
00000250: c1ff e1be 7701 03bf 1600 303f 7564 1cbd
00000260: 6578 c43e 17d7 493d 709b 9f3e ee64 593f
00000270: 3212 5c3d ff63 533f 09e8 6cbe 523f 88be
00000280: 61c5 643e db07 c9be 437f b33e 5667 e7bd
00000290: c5bb 483e c4e6 7abe c13d 133e 3e22 003c
000002a0: c519 4e3e 2dc4 1a3f bf40 4f3e 3d24 38bf
000002b0: 8cf4 5b3e d9b5 4a3e 94e8 aebe 218f 3fbe
000002c0: ddfe 45bf 017e 113f 296d 0abe ca39 2b3f
000002d0: 22ec 1d3e 5dbb 613e afb8 623f 15da 013d
000002e0: 6921 a23e 178b cabe 4664 d43e 87df 823e
000002f0: 4fd0 503f b75e 4cbe d1a0 98be e5a7 0dbf
00000300: 4fbc f63e c9f2 22bf 3ec0 f63e a335 543e
00000310: 648e 853d bdbc b9bf 228d 33bf f9b9 b7be
00000320: 930e ce3e 87c6 143e 1f09 1e3e 5033 203e
00000330: e5c5 2e3e cf8d db3e cc31 bf3d 84d7 f33e
00000340: b136 82be defe fbbd ea49 7d3e 3589 d1be
00000350: 3b61 863e 473e 51be 7682 353d 55d7 6dbe
00000360: 463a 853d 31d9 00be 716a 803e 313d 5c3e
00000370: 30e6 e5bb 0929 20bf 67b7 0f3e e863 3f3e
00000380: 3989 b9be 9b2b cbbd a4b5 98be d9b4 9e3e
00000390: d045 30be be9b 603e ad13 953e 50e3 443e
000003a0: 2880 1f3f 5a2a 1e3e e177 2e3e 466e 98be
000003b0: ec0e 6d3e 090b 4a3e cb71 c23e ef8c 8bbe
000003c0: 5b53 b9bc 0346 b7be 5579 6a3e 9b8d 8dbe
000003d0: d504 9b3e d7ec 1abd daec 403d 6a9c 99bf
000003e0: 4485 08bf 5042 3abe
0.013711385 -0.1243194 -0.09114173 -0.009468975 -0.010064927 -0.051187553 0.16691372 -0.05358009
0.13256872 -0.07206928 -0.06549945 -0.11749019 -0.049095154 -0.12761956 0.13987625 -0.054468714
0.08699372 -0.050451085 -0.033807326 -0.07052777 0.09878108 0.2801439 -0.1454329 -0.108017206
0.04574726 0.027339429 0.28947377 0.0787659 0.045573846 -0.18684322 0.11964249 -0.051145934
-0.05045854 -0.060661986 0.010799083 0.14612181 0.12899922 -0.06492144 -0.23430076 -0.06480004
0.008417836 0.10426981 0.08738887 0.025597252 -0.1017551 0.16606154 -0.058895025 -0.01644446
0.07923195 0.12673648 0.013085981 -0.041741997 -0.074978925 -0.043323483 0.07330645 0.03742704
0.05264057 -0.059063043 0.062064987 0.008657666 -0.0726742 -0.06052615 0.036451794 -0.009290308
0.104908496 0.091812216 0.066038415 -0.10996485 -0.13666616 0.030902121 -0.010338798 -0.14325255
-0.06634247 -0.08091001 -0.09130275 0.027860224 0.033801403 -0.10009771 -0.1300549 0.0400674
0.06467161 0.03264587 -0.004162888 -0.047356356 -0.032343045 -0.040136117 -0.07885665 -0.11151309
0.06432268 -0.03453444 0.0042609656 -0.118705906 -0.033402614 -0.002909352 -0.11122808 -0.12589072
-0.12853101 -0.13645793 0.10379754 -0.07555783 0.57321745 0.1413365 0.44778118 0.043437783
0.32271868 0.7346936 0.06017893 0.7172576 -0.32652745 -0.062004514 0.13512605 -0.35473356
0.4144411 -0.17280301 0.17254846 -0.24334708 0.23939227 -0.13177066 0.42087403 0.49751025
0.1683944 -0.8276773 0.12714429 0.33576432 -0.41703233 -0.12868 -0.71966314 0.46911505
-0.0052822945 0.51157266 0.30469358 0.06910119 0.9068782 0.20410779 0.2788318 -0.4686276
0.39473608 0.225153 0.7978798 -0.13903013 -0.35498726 -0.63591826 0.44102615 -0.5745652
0.6817829 0.21232407 -0.015035205 -1.4525163 -0.44140437 -0.5117411 0.6875013 -0.03818174
0.38373104 0.04927739 0.31173277 0.8491963 0.05372829 0.82574457 -0.2313539 -0.2661081
0.22340919 -0.39263806 0.3505803 -0.11299007 0.19602878 -0.24502093 0.14379026 0.007820664
0.20127018 0.6045559 0.20239542 -0.71930295 0.21480006 0.19795932 -0.34161818 -0.18706943
-0.77342016 0.5683289 -0.13518204 0.66885054 0.15422109 0.2204413 0.88563055 0.03170212
0.31666115 -0.39559242 0.41482753 0.25561163 0.81567854 -0.19958006 -0.29810193 -0.5533431
0.48190543 -0.6365171 0.48193544 0.20723586 0.065212995 -1.4510723 -0.70137227 -0.35884073
0.40245494 0.14528857 0.15433167 0.15644574 0.17067678 0.4288163 0.0933567 0.47625363
-0.2543235 -0.123044714 0.24735227 -0.40924993 0.26246056 -0.20433913 0.04431387 -0.23226674
0.065052554 -0.12582852 0.25081208 0.21507718 -0.007015966 -0.62562615 0.14034806 0.18690455
-0.36237505 -0.099204265 -0.2982608 0.3099735 -0.17214131 0.21934411 0.29116574 0.19227338
0.62304926 0.15445843 0.17037918 -0.29771632 0.23150223 0.19730772 0.37977442 -0.2725596
-0.022622755 -0.35795602 0.22897847 -0.276471 0.30277124 -0.037823524 0.04710088 -1.2000859
-0.5332835 -0.18189359

2.bias f4 [5]
00000000: 2403 77bd d3c3 973b f735 5b3f 4e40 233f
00000010: 7fec fd3e
-0.06030573 0.0046314984 0.8562922 0.63769996 0.49594495

4.weight f4 [1, 5]
00000000: 99ca 2abf 0b33 a3be 148c 5340 a349 5340
00000010: 59c0 0e40
-0.6671539 -0.3187488 3.3054247 3.3013694 2.23049
