DL103/Main Content/Code - Advanced Workshop/06. VOICE COMMAND/pytorch/voice_command_model/model.pth (torch, 497900 bytes, 19 tensors)

0.weight f4 [5, 8192]
0.061115194 0.059909075 0.06123822 0.055267513 0.051300783 0.053002276 0.05576898 0.058651358
0.056142624 0.04784203 0.04169153 0.03626107 0.02739307 0.008732411 -0.0022552323 -0.0030209294
-0.0034204207 -0.006934853 -0.015579164 -0.014517696 -0.020806607 -0.02373824 -0.030985296 -0.023944799
-0.035179004 -0.031414058 -0.037635177 -0.04028589 -0.03616415 -0.034718744 -0.043416012 -0.037839375
-0.041130412 -0.040426455 -0.04294627 -0.04156048 -0.035667703 -0.047929637 -0.04482249 -0.036228027
-0.041692745 -0.041630987 -0.03691722 -0.040341113 -0.035245243 -0.041622154 -0.03912993 -0.031921983
-0.03599816 -0.04152663 -0.027700325 -0.031055879 -0.022551728 -0.01801284 -0.017174408 -0.008742035
-0.013883041 -0.012000078 -0.014662176 -0.025513466 -0.017632151 -0.023005424 -0.016308868 -0.015586982
-0.01967359 -0.016987357 -0.0157329 -0.015645405 -0.0078088897 -0.0070459824 -0.010594771 -0.008005532
-0.0122155575 -0.0152446795 -0.020927085 -0.013853357 -0.026578113 -0.018912224 -0.026377745 -0.027908774
-0.024597315 -0.019431606 -0.028536526 -0.026829725 -0.022343524 -0.028671635 -0.021879267 -0.027794521
-0.02924272 -0.025877407 -0.026396459 -0.021960512 -0.01641463 -0.021622559 -0.017735519 -0.014966515
-0.014873558 -0.014155849 -0.010973754 -0.005337634 -0.012419015 -0.006386661 0.0015307795 -0.008819406
-0.0060360706 -0.019142654 -0.015612304 -0.020441199 -0.027442494 -0.019899415 -0.022148965 -0.027481297
-0.022465214 -0.014330106 -0.017947368 -0.022921849 -0.021970164 -0.021468638 -0.021737494 -0.017712012
-0.026251052 -0.02227582 -0.027792368 -0.030903798 -0.040137183 -0.03660837 -0.048994575 -0.047195252
-0.047691733 -0.040816598 -0.050936628 -0.04587331 -0.036546167 -0.029492164 -0.028348383 -0.02695768
-0.031768687 -0.023091331 -0.02641129 -0.02215352 -0.022304079 -0.01393662 -0.014906357 -0.014967598
-0.018553931 -0.0025462238 0.00061409455 0.0018376758 -0.0042646993 -0.001812871 0.0068193832 -0.0026553422
0.0076733017 0.006661601 0.0141910575 0.014519191 0.019902064 0.022719946 0.021201067 0.024414383
0.023149613 0.028119817 0.02827742 0.02498612 0.028412823 0.030669585 0.027612172 0.026274236
0.025120452 0.029676292 0.03713649 0.03049647 0.026705267 0.029497482 0.024875194 0.014960788
0.017923212 0.015429817 0.006279671 0.009671649 0.013666057 0.015037958 0.003307997 0.0037959968
0.0045698537 0.0064329617 0.0070670145 0.017846746 0.013422232 0.008741756 0.007648397 0.005376505
0.0035054632 0.008968773 0.007819625 0.009084282 0.008712151 0.005421516 0.0038184985 -0.007218562
-0.012315566 -0.010225723 -0.013181246 -0.014151766 -0.015745679 -0.021765705 -0.024998453 -0.021314098
-0.016667737 -0.01353184 -0.021932246 -0.021070696 -0.015535713 -0.019794839 -0.021907965 -0.027414475
-0.019948315 -0.026095653 -0.021224838 -0.03001822 -0.03116545 -0.024688758 -0.022149688 -0.018845363
-0.022557493 -0.01643159 -0.02455943 -0.026264999 -0.023542326 -0.02238678 -0.016632723 -0.012637572
-0.010112412 -0.01726229 -0.013745589 -0.011483166 -0.006453962 -0.008792795 -0.0069790827 -0.0011963353
-0.0038234412 0.008737252 0.005181352 0.012656093 0.02534362 0.028124342 0.036635242 0.050102606
0.052591953 0.05813962 0.059379622 0.069753826 0.07633379 0.08661476 0.08446996 0.081443034
00000000: ed53 7a3d 3863 753d eed4 7a3d 3060 623d
00000010: c520 523d ea18 593d 046e 643d 683c 703d
00000020: cff5 653d 01f6 433d bdc4 2a3d 7d86 143d
00000030: 6e67 e03c 6312 0f3c 85cc 13bb c9fa 45bb
00000040: 2329 60bb c33d e3bb c03f 7fbc a1db 6dbc
00000050: 9e72 aabc b376 c2bc e0d4 fdbc e227 c4bc
00000060: dc17 10bd 07ac 00bd 5827 1abd d102 25bd
00000070: dc20 14bd 3e35 0ebd fdd4 31bd 76fd 1abd
00000080: 5d78 28bd 3696 25bd 6ee8 2fbd 523b 2abd
00000090: 4c18 12bd de51 44bd ca97 37bd d763 14bd
000000a0: 03c6 2abd 4185 2abd 8336 17bd b93c 25bd
000000b0: 515d 10bd fe7b 2abd b546 20bd a0c0 02bd
000000c0: ce72 13bd d417 2abd cbeb e2bc e668 febc
000000d0: 67be b8bc aa8f 93bc 58b1 8cbc c13a 0fbc
000000e0: b275 63bc fa9b 44bc a039 70bc 9e01 d1bc
000000f0: 4d71 90bc df75 bcbc 2d9a 85bc 8a60 7fbc
00000100: 822a a1bc 1229 8bbc 48e2 80bc cb2a 80bc
00000110: b7e1 ffbb fce1 e6bb b195 2dbc a329 03bc
00000120: c323 48bc d2c4 79bc 476f abbc 31f9 62bc
00000130: 58ba d9bc cfed 9abc 2416 d8bc f1a0 e4bc
00000140: 4f80 c9bc 082f 9fbc 6fc5 e9bc 03ca dbbc
00000150: c409 b7bc c7e0 eabc 263c b3bc 56b1 e3bc
00000160: 6e8e efbc dbfc d3bc 633d d8bc 88e6 b3bc
00000170: f977 86bc cb21 b1bc 144a 91bc 1d36 75bc
00000180: 39b0 73bc efed 67bc 43cb 33bc 52e7 aebb
00000190: 2079 4bbc 3247 d1bb 70a4 c83a 457f 10bc
000001a0: 3bca c5bb 0ed1 9cbc c0ca 7fbc 4d74 a7bc
000001b0: 15cf e0bc 1904 a3bc bf71 b5bc 7520 e1bc
000001c0: f808 b8bc d2c8 6abc 5c06 93bc 9ac6 bbbc
000001d0: c6fa b3bc ffde afbc d412 b2bc c818 91bc
000001e0: 720c d7bc c87b b6bc d2ac e3bc f629 fdbc
000001f0: e366 24bd a8f2 15bd 89ae 48bd cf4f 41bd
00000200: 6858 43bd 4e2f 27bd eda2 50bd a7e5 3bbd
00000210: 6fb1 15bd 8d99 f1bc de3a e8bc 5ad6 dcbc
00000220: e21f 02bd 082a bdbc 7d5c d8bc 4c7b b5bc
00000230: 0bb7 b6bc 6c56 64bc cb39 74bc a83a 75bc
00000240: 6afe 97bc 8cde 26bb 30fb 203a 2bde f03a
00000250: e4be 8bbb db9d edba 2275 df3b 4005 2ebb
00000260: 5270 fb3b 8f49 da3b 9c81 683c e7e1 6d3c
00000270: a709 a33c 2e1f ba3c dcad ad3c ac00 c83c
00000280: 42a4 bd3c 885b e63c 0ca6 e73c b1af cc3c
00000290: 02c2 e83c c83e fb3c ec32 e23c 113d d73c
000002a0: 68c9 cd3c b21b f33c 6f1c 183d bcd3 f93c
000002b0: 01c5 da3c b4a4 f13c 10c7 cb3c 181e 753c
000002c0: b3d3 923c 58cd 7c3c b3c5 cd3b d675 1e3c
000002d0: 99e7 5f3c c461 763c fbca 583b 42c6 783b
000002e0: b6be 953b 98cb d23b 6a92 e73b 5733 923c
000002f0: ece8 5b3c 9539 0f3c 679f fa3b 652d b03b
00000300: eabb 653b c3f1 123c e21d 003c 3ed6 143c
00000310: 69bd 0e3c f9a6 b13b c63f 7a3b b089 ecbb
00000320: 3ac7 49bc ca89 27bc 27f6 57bc cfdc 67bc
00000330: 15fd 80bc fe4d b2bc 8ec9 ccbc e79a aebc
00000340: c78a 88bc a7b4 5dbc 41ab b3bc 749c acbc
00000350: 8189 7ebc c928 a2bc 5578 b3bc 5294 e0bc
00000360: a66a a3bc 8dc6 d5bc b6df adbc c5e8 f5bc
00000370: b04e ffbc 1440 cabc 4373 b5bc 9761 9abc
00000380: 7eca b8bc 8b9b 86bc dc30 c9bc b229 d7bc
00000390: d6db c0bc 7b64 b7bc 5941 88bc d20d 4fbc
000003a0: 88ae 25bc a569 8dbc 2e35 61bc e423 3cbc
000003b0: c27b d3bb a80f 10bc cab0 e4bb 5ace 9cba
000003c0: b392 7abb b126 0f3c 55c8 a93b 805b 4f3c
000003d0: 6c9d cf3c 0565 e63c d60e 163d 6438 4d3d
000003e0: a96a 573d cf23 6e3d 0c38 733d 18db 8e3d
000003f0: e454 9c3d 1463 b13d 96fe ac3d 9bcb a63d

0.bias f4 [5]
0.08684198 0.0054624076 0.26981044 0.0823453 -0.059867326
00000000: 35da b13d fffd b23b 9824 8a3e a7a4 a83d
00000010: 7137 75bd

2.weight f4 [5, 5]
-0.28063333 0.5074379 0.66027504 -0.4937758 -0.035631027 -0.0931547 -0.025203856 -0.359269
0.55870014 -0.80973643 0.52853173 -0.2430974 0.55013955 0.0505842 0.11926782 0.262261
-0.35098064 0.61360043 0.13845342 0.028382516 0.7172779 0.035871487 -0.6983491 0.3236893
-0.40414283
00000000: 2caf 8fbe 73e7 013f c907 293f 2fd0 fcbe
00000010: d7f1 11bd e4c7 bebd 5178 cebc 1bf2 b7be
00000020: f906 0f3f e34a 4fbf db4d 073f 86ee 78be
00000030: f2d5 0c3f 6131 4f3d b042 f43d 1347 863e
00000040: bcb3 b3be eb14 1d3f bcc6 0d3e 7382 e83c
00000050: 869f 373f fbed 123d 02c7 32bf 9bba a53e
00000060: cfeb cebe

2.bias f4 [5]
0.09798664 0.28690875 0.21818072 0.67608005 -0.20619185
00000000: 38ad c83d b4e5 923e c46a 5f3e 9513 2d3f
00000010: f523 53be

4.weight f4 [4, 5]
-0.24787615 0.7256538 -0.36623687 -0.26581407 0.23115474 -0.5885757 -0.07302773 -0.03750163
-0.7487141 0.6944659 0.43849114 -0.6392423 -0.47990492 -0.6257585 -0.5538208 -0.5695038
-0.8868437 0.6133685 0.46600395 -0.16333932
00000000: 3fd3 7dbe 73c4 393f 6683 bbbe c818 88be
00000010: d4b3 6c3e e6ac 16bf 908f 95bd 4f9b 19bd
00000020: baab 3fbf 84c8 313f e981 e03e 62a5 23bf
00000030: 19b6 f5be b631 20bf 33c7 0dbf 00cb 11bf
00000040: 3008 63bf b805 1d3f 1298 ee3e 6c42 27be

4.bias f4 [4]
-0.22200684 0.27675012 0.7090748 -0.40037054
00000000: c355 63be 31b2 8d3e ed85 353f 5efd ccbe

exp_avg f4 [5, 8192]
0.00082268054 0.00082026736 0.00082292664 0.0008008491 0.00077011256 0.00075153704 0.00073590525 0.00072056544
0.00069446885 0.00068451365 0.0006942696 0.0007196434 0.0007527983 0.00076838344 0.00080219575 0.0008151878
0.00081704016 0.0008097746 0.0007879709 0.0007835358 0.0007522593 0.0007663158 0.00076890737 0.0007929901
0.0007768924 0.0007921104 0.0007862369 0.00078673405 0.000802475 0.00081341114 0.00080488523 0.00082494447
0.0008554231 0.0009323768 0.0010059837 0.0010903464 0.001183345 0.0012391278 0.001312241 0.0013932246
0.0014449311 0.0015034963 0.0015737854 0.001626404 0.0015391377 0.0013999657 0.0012761544 0.0011601177
0.0010233611 0.0008850747 0.0008654265 0.00079795904 0.0007518686 0.00069704204 0.00063434086 0.0006112763
0.00064134813 0.00069496804 0.0007438479 0.0007804038 0.0008569312 0.00092211406 0.0010348354 0.0011424309
0.001239236 0.0013483412 0.0014588762 0.0015007743 0.0015130084 0.0015090781 0.0014947318 0.0014944898
0.001483643 0.0013950038 0.0012777784 0.0011852991 0.0010567488 0.0009765811 0.0008652452 0.00082867383
0.00080136623 0.00077095674 0.00071222323 0.0006742056 0.00065399543 0.0006706919 0.00071519474 0.0007434733
0.00078059343 0.0008280682 0.00087114325 0.0009340547 0.0009862976 0.0010182003 0.001061523 0.0011037337
0.0011269931 0.0011289559 0.0011297282 0.0011136967 0.0010691247 0.0010583983 0.0010219458 0.00094160164
0.0009000167 0.00083211134 0.0007938054 0.00073208957 0.0006722531 0.00063980627 0.00058443367 0.000523049
0.0004820847 0.00045109016 0.00041082766 0.0003728825 0.00035130102 0.000330511 0.00030800907 0.00029276276
0.00025263865 0.00023609989 0.00019935348 0.00016897952 0.0001242014 0.00017030862 0.00027819833 0.00041446765
0.00054132903 0.0006781224 0.00078091567 0.0008686622 0.0009337785 0.0009925239 0.0010435771 0.0011033664
0.0011520531 0.0010764337 0.0009328795 0.0008055942 0.000672556 0.0005658231 0.00043971936 0.0003276469
0.00020838116 0.00012840053 2.5360001e-05 -8.776287e-05 -0.00020299939 -0.00021032277 -0.0001985017 -0.00021732901
-0.00019902732 -0.00020454924 -0.00020081813 -0.00023283147 -0.00025012475 -0.00026649504 -0.0002697436 -0.0002604693
-0.00026014438 -0.0002465984 -0.00024185794 -0.0002425555 -0.0002315674 -0.00024191433 -0.00022300456 -0.00018131672
-0.00013964712 -8.964271e-05 -4.66391e-05 -3.1854295e-05 -6.496782e-05 -9.936474e-05 -0.00014685206 -0.00020553426
-0.00024064645 -0.00028741843 -0.00038864993 -0.00044921556 -0.00049656956 -0.0005503661 -0.00062866777 -0.0006742159
-0.0006952165 -0.0007204498 -0.0007479133 -0.00073447305 -0.00074763433 -0.0007365986 -0.0006817742 -0.000642332
-0.0006020689 -0.0005471302 -0.0004952416 -0.00043708293 -0.00038546545 -0.00032624498 -0.00026158692 -0.00021961262
-0.00017049556 -8.4299216e-05 -1.2970056e-05 6.555749e-05 0.00014365034 0.00021043936 0.00028003776 0.00026258436
0.00024974797 0.00021478542 0.00014775488 9.932078e-05 6.371581e-05 1.50534515e-05 -2.9651848e-05 -8.1012346e-05
-0.0001040011 -0.00015433291 -0.0001701978 -0.00020584576 -0.00022374374 -0.00022605754 -0.00023202546 -0.00023287248
-0.00019041206 -7.4724856e-05 8.302396e-06 0.00010360603 0.00020467369 0.00030150346 0.00036228643 0.0003959417
0.00042288963 0.00042614032 0.00044016566 0.00044597758 0.00036352538 0.00023262593 0.00010354356 -2.1572709e-05
-0.00016132272 -0.00026584006 -0.00029957108 -0.00030400645 -0.00029297484 -0.00028421587 -0.00025842455 -0.00023573295
-0.00026971422 -0.00029756935 -0.00033411532 -0.00035407144 -0.0003756122 -0.0003705172 -0.0003748083 -0.00038086434
00000000: 28a9 573a 3607 573a acb9 573a 13f0 513a
00000010: 61e1 493a cc02 453a c4e9 403a 54e4 3c3a
00000020: 040d 363a ef70 333a a5ff 353a 73a6 3c3a
00000030: 7057 453a 576d 493a 724a 523a 54b2 553a
00000040: a32e 563a 0e47 543a d58f 4e3a 3366 4d3a
00000050: 4433 453a 95e2 483a 8090 493a aae0 4f3a
00000060: 5ea8 4b3a a1a5 4f3a 771b 4e3a d43c 4e3a
00000070: 305d 523a 193b 553a effe 523a 1641 583a
00000080: 793e 603a bf6a 743a 36db 833a f4e9 8e3a
00000090: 781a 9b3a 3b6a a23a 80ff ab3a dc9c b63a
000000a0: d863 bd3a f710 c53a 7a47 ce3a 102d d53a
000000b0: e4bc c93a 0e7f b73a a344 a73a 170f 983a
000000c0: 4d22 863a 5c04 683a cadd 623a 202e 513a
000000d0: 0c19 453a b3b9 363a e549 263a 0f3e 203a
000000e0: 2520 283a 842e 363a cafe 423a 0394 4c3a
000000f0: aea3 603a 07ba 713a 50a3 873a 9fbd 953a
00000100: dc6d a23a d3ba b03a c337 bf3a a1b5 c43a
00000110: 2350 c63a 42cc c53a e0ea c33a c2e2 c33a
00000120: cc76 c23a 8fd8 b63a 217b a73a 0a5c 9b3a
00000130: 9b82 8a3a a000 803a 9fd1 623a 5c3b 593a
00000140: c712 523a 081a 4a3a 7eb4 3a3a 2cbd 303a
00000150: e470 2b3a 5fd1 2f3a e87b 3b3a a6e5 423a
00000160: bda0 4c3a b712 593a 6f5d 643a 5adb 743a
00000170: a846 813a 2275 853a cd22 8b3a 28ab 903a
00000180: 9db7 933a 79f9 933a 6313 943a 76f9 913a
00000190: df21 8c3a f4b9 8a3a d0f2 853a d1d5 763a
000001a0: 19ef 6b3a 0c22 5a3a 6117 503a b3e9 3f3a
000001b0: 243a 303a acb8 273a ae34 193a 391d 093a
000001c0: 50c0 fc39 4c80 ec39 5b64 d739 717f c339
000001d0: d32e b839 6f48 ad39 477c a139 f47d 9939
000001e0: 9674 8439 9591 7739 8b09 5139 1830 3139
000001f0: 0f3c 0239 df94 3239 26db 9139 e84c d939
00000200: fae7 0d3a 06c4 313a 5db6 4c3a efb6 633a
00000210: d0c8 743a 9317 823a a3c8 883a d59e 903a
00000220: 7d00 973a 1f17 8d3a 7c8c 743a 832e 533a
00000230: 784e 303a bf53 143a 228a e639 06c8 ab39
00000240: e480 5a39 41a3 0639 30bc d437 550d b8b8
00000250: 3cdc 54b9 178a 5cb9 e524 50b9 d0e2 63b9
00000260: fdb1 50b9 457c 56b9 b592 52b9 3924 74b9
00000270: 2d23 83b9 5cb8 8bb9 606c 8db9 998f 88b9
00000280: fd63 88b9 e149 81b9 3f9b 7db9 7f56 7eb9
00000290: e7d0 72b9 62aa 7db9 55d6 69b9 d61f 3eb9
000002a0: 3d6e 12b9 90fe bbb8 5a9e 43b8 4a9b 05b8
000002b0: 553f 88b8 0a62 d0b8 4dfc 19b9 af84 57b9
000002c0: 0a56 7cb9 a6b0 96b9 b6c3 cbb9 b184 ebb9
000002d0: 382c 02ba 7246 10ba 2ecd 24ba ddbd 30ba
000002e0: 313f 36ba 91dc 3cba 9d0f 44ba a789 40ba
000002f0: e4fc 43ba 4c18 41ba 18b9 32ba 2c62 28ba
00000300: 29d4 1dba 496d 0fba 1ad3 01ba 4728 e5b9
00000310: 4c18 cab9 dc0b abb9 9a25 89b9 d047 66b9
00000320: 0ec7 32b9 ccc9 b0b8 f799 59b7 e97b 8938
00000330: d8a0 1639 63a9 5c39 08d2 9239 7aab 8939
00000340: 9bf0 8239 0638 6139 a6ee 1a39 704a d038
00000350: 2a9f 8538 158e 7c37 dcbc f8b7 2ce5 a9b8
00000360: 2a1b dab8 6dd4 21b9 2077 32b9 4dd8 57b9
00000370: c19c 6ab9 dc09 6db9 dc4b 73b9 3b2f 74b9
00000380: 59a9 47b9 9ab5 9cb8 854a 0b37 1047 d938
00000390: ad9d 5639 1c13 9e39 43f1 bd39 6596 cf39
000003a0: 49b7 dd39 966b df39 09c6 e639 19d2 e939
000003b0: 8d97 be39 0ced 7339 8725 d938 0af7 b4b7
000003c0: bd28 29b9 7360 8bb9 c00f 9db9 0e63 9fb9
000003d0: 6b9a 99b9 cf02 95b9 287d 87b9 152f 77b9
000003e0: 6e68 8db9 1503 9cb9 332c afb9 aaa2 b9b9
000003f0: d1ed c4b9 fa41 c2b9 eb81 c4b9 bfae c7b9

exp_avg_sq f4 [5, 8192]
2.624605e-05 2.624665e-05 2.6245974e-05 2.6657455e-05 2.751639e-05 2.8495826e-05 2.9560077e-05 3.0707542e-05
3.1942764e-05 3.223702e-05 3.2267933e-05 3.233463e-05 3.2439853e-05 3.257811e-05 3.2795055e-05 3.263498e-05
3.252615e-05 3.2464297e-05 3.244011e-05 3.2488664e-05 3.2551336e-05 3.23859e-05 3.2260014e-05 3.220695e-05
3.2205233e-05 3.2256037e-05 3.226256e-05 3.2124233e-05 3.2050375e-05 3.203766e-05 3.2085845e-05 3.2210635e-05
3.2359025e-05 3.2568692e-05 3.2861186e-05 3.322989e-05 3.3669836e-05 3.416213e-05 3.446395e-05 3.472294e-05
3.5059285e-05 3.5485253e-05 3.6001446e-05 3.6601927e-05 3.6587047e-05 3.6491307e-05 3.6493497e-05 3.658987e-05
3.6779325e-05 3.705797e-05 3.701711e-05 3.709991e-05 3.728554e-05 3.7543774e-05 3.786673e-05 3.8184004e-05
3.825561e-05 3.8410504e-05 3.8645405e-05 3.8949314e-05 3.9330444e-05 3.952773e-05 3.9435152e-05 3.939452e-05
3.944963e-05 3.9599516e-05 3.9832626e-05 3.9797655e-05 3.960909e-05 3.946251e-05 3.9408584e-05 3.9447936e-05
3.9560622e-05 3.9285645e-05 3.903054e-05 3.8975948e-05 3.910318e-05 3.9388542e-05 3.9839855e-05 4.0038998e-05
4.0371968e-05 4.085386e-05 4.1491272e-05 4.228183e-05 4.3048924e-05 4.288041e-05 4.2832275e-05 4.2901585e-05
4.3086056e-05 4.3390064e-05 4.3545617e-05 4.3252432e-05 4.306149e-05 4.2960215e-05 4.3003634e-05 4.317371e-05
4.302626e-05 4.2564043e-05 4.2236923e-05 4.2050917e-05 4.2007814e-05 4.2108648e-05 4.1919277e-05 4.16499e-05
4.1478845e-05 4.141764e-05 4.1479692e-05 4.1658375e-05 4.1674597e-05 4.1766732e-05 4.196338e-05 4.2257456e-05
4.2671636e-05 4.317742e-05 4.3277254e-05 4.348776e-05 4.384133e-05 4.4346103e-05 4.498883e-05 4.5575085e-05
4.564284e-05 4.582618e-05 4.613161e-05 4.6547848e-05 4.7064113e-05 4.738865e-05 4.7373916e-05 4.748382e-05
4.7704547e-05 4.80408e-05 4.8483562e-05 4.8479353e-05 4.8199756e-05 4.8039965e-05 4.8011305e-05 4.8094502e-05
4.8294783e-05 4.807676e-05 4.7817975e-05 4.7689435e-05 4.768276e-05 4.7781334e-05 4.8001864e-05 4.7681206e-05
4.7458936e-05 4.7373393e-05 4.738137e-05 4.749206e-05 4.760877e-05 4.7175232e-05 4.6862322e-05 4.668064e-05
4.6633322e-05 4.6710382e-05 4.6680198e-05 4.6277593e-05 4.6040794e-05 4.595018e-05 4.6005975e-05 4.6207944e-05
4.6291523e-05 4.6234738e-05 4.6287318e-05 4.6437937e-05 4.6682962e-05 4.7021902e-05 4.694073e-05 4.6717447e-05
4.6571084e-05 4.65323e-05 4.6579935e-05 4.675163e-05 4.64243e-05 4.6100668e-05 4.591686e-05 4.5863962e-05
4.591597e-05 4.6065015e-05 4.569592e-05 4.5416135e-05 4.5233763e-05 4.520145e-05 4.525948e-05 4.5228317e-05
4.4640998e-05 4.414598e-05 4.3762448e-05 4.3478984e-05 4.330949e-05 4.319042e-05 4.3097818e-05 4.310322e-05
4.3237007e-05 4.3498156e-05 4.3721797e-05 4.3714885e-05 4.357165e-05 4.351563e-05 4.3547025e-05 4.3660213e-05
4.385556e-05 4.364721e-05 4.3386488e-05 4.3215252e-05 4.313694e-05 4.3158707e-05 4.327062e-05 4.293349e-05
4.2713335e-05 4.2619802e-05 4.2647047e-05 4.2795917e-05 4.296199e-05 4.273013e-05 4.256787e-05 4.2496617e-05
4.2508476e-05 4.261864e-05 4.2580214e-05 4.2039563e-05 4.1611802e-05 4.129134e-05 4.1050414e-05 4.0884952e-05
4.0608615e-05 4.0276078e-05 4.0047427e-05 3.991566e-05 3.9900668e-05 3.9998376e-05 3.9787763e-05 3.948135e-05
3.927506e-05 3.916495e-05 3.9163362e-05 3.924653e-05 3.8946724e-05 3.862368e-05 3.836146e-05 3.81734e-05
3.8028174e-05 3.7941096e-05 3.7756534e-05 3.768373e-05 3.7680642e-05 3.7747388e-05 3.7900965e-05 3.7753434e-05
3.6536847e-05 3.5412006e-05 3.4386278e-05 3.3446013e-05 3.2631273e-05 3.221969e-05 3.2222637e-05 3.222686e-05
00000000: f72a dc37 402c dc37 cd2a dc37 739e df37
00000010: ffd2 e637 520a ef37 c8f7 f737 f9cb 0038
00000020: 48fa 0538 3d36 0738 6e57 0738 0b9f 0738
00000030: 0710 0838 7ba4 0838 6c8d 0938 8be1 0838
00000040: b06c 0838 462a 0838 4e10 0838 7044 0838
00000050: bb87 0838 18d6 0738 ed4e 0738 f315 0738
00000060: 1b14 0738 a84a 0738 a951 0738 22bd 0638
00000070: d46d 0638 2d60 0638 ea93 0638 e819 0738
00000080: 3db9 0738 5e9a 0838 6ed4 0938 5360 0b38
00000090: b638 0d38 4f49 0f38 628d 1038 79a3 1138
000000a0: 9f0c 1338 00d6 1438 4200 1738 0585 1938
000000b0: 0b75 1938 3e0e 1938 9810 1938 1378 1938
000000c0: 8043 1a38 b16e 1b38 d242 1b38 ba9b 1b38
000000d0: 0b63 1c38 5278 1d38 17d3 1e38 c327 2038
000000e0: a674 2038 f71a 2138 3017 2238 825d 2338
000000f0: bef6 2438 94ca 2538 2c67 2538 8b3b 2538
00000100: b876 2538 a817 2638 f511 2738 68ec 2638
00000110: f021 2638 8c84 2538 a54a 2538 e674 2538
00000120: e5ed 2538 a4c6 2438 b9b4 2338 1b7a 2338
00000130: b802 2438 2035 2538 b819 2738 8cef 2738
00000140: 1255 2938 805a 2b38 ea06 2e38 c557 3138
00000150: 6e8f 3438 7dda 3338 cea6 3338 3af1 3338
00000160: 4db7 3438 bafd 3538 c0a4 3638 f269 3538
00000170: ec9c 3438 2e30 3438 cd5e 3438 6b15 3538
00000180: 1877 3438 cb86 3238 8d27 3138 d45f 3038
00000190: 8c31 3038 d19d 3038 7bd2 2f38 3db1 2e38
000001a0: 92f9 2d38 dab7 2d38 7bfa 2d38 57ba 2e38
000001b0: c2cb 2e38 b02e 2f38 d601 3038 993d 3138
000001c0: 52fa 3238 6719 3538 9984 3538 a066 3638
000001d0: 45e2 3738 4400 3a38 63b2 3c38 e027 3f38
000001e0: a070 3f38 7c35 4038 707d 4138 5f3c 4338
000001f0: b566 4538 2dc3 4638 5bb3 4638 5d29 4738
00000200: 5e16 4838 6b7f 4938 d45a 4b38 4f56 4b38
00000210: 182a 4a38 857e 4938 bf5f 4938 14b9 4938
00000220: 2190 4a38 07a6 4938 2990 4838 2406 4838
00000230: f9fe 4738 d168 4838 9c55 4938 4efd 4738
00000240: a50e 4738 cbb2 4638 5cbb 4638 3632 4738
00000250: 87af 4738 05de 4538 098e 4438 f5ca 4338
00000260: 2698 4338 e4ea 4338 7bca 4338 301a 4238
00000270: ed1b 4138 a1ba 4038 8af6 4038 67cf 4138
00000280: 2529 4238 2cec 4138 a124 4238 5bc6 4238
00000290: 73cd 4338 6239 4538 3ae2 4438 7af2 4338
000002a0: 5255 4338 ad2b 4338 d35e 4338 2e17 4438
000002b0: b6b7 4238 375c 4138 da96 4038 0e5e 4038
000002c0: e695 4038 ef35 4138 9fa9 3f38 347d 3e38
000002d0: 62b9 3d38 b096 3d38 ffd4 3d38 89b3 3d38
000002e0: e83c 3b38 6329 3938 928d 3738 345d 3638
000002f0: 36a7 3538 5c27 3538 eec3 3438 bbc9 3438
00000300: 6259 3538 ca71 3638 ec61 3738 805a 3738
00000310: b4c0 3638 8d84 3638 43a6 3638 cc1f 3738
00000320: 8df1 3738 d611 3738 e3f9 3538 0642 3538
00000330: f0ed 3438 4f05 3538 797d 3538 7c13 3438
00000340: 1827 3338 aac2 3238 ebdf 3238 c47f 3338
00000350: 1632 3438 2139 3338 e78a 3238 653e 3238
00000360: 214b 3238 6bc1 3238 2898 3238 a353 3038
00000370: 5588 2e38 3d30 2d38 8c2d 2c38 e27b 2b38
00000380: 2b53 2a38 1cee 2838 99f8 2738 1d6b 2738
00000390: 045b 2738 eec3 2738 c9e1 2638 c798 2538
000003a0: 46bb 2438 0b45 2438 5743 2438 a49c 2438
000003b0: ba5a 2338 dcff 2138 4ee6 2038 601c 2038
000003c0: 7180 1f38 f122 1f38 c55c 1e38 990e 1e38
000003d0: 480b 1e38 f352 1e38 daf7 1e38 7159 1e38
000003e0: 243f 1938 5a87 1438 fc39 1038 6248 0c38
000003f0: 90dd 0838 a123 0738 cb26 0738 542b 0738

exp_avg f4 [5]
0.0032576793 0.0010575991 -0.018435286 0.0074308007 -0.0072459
00000000: ca7e 553b 239f 8a3a 9905 97bc 137e f33b
00000010: 046f edbb

exp_avg_sq f4 [5]
0.0007735874 0.00029101613 0.0012064026 0.0009054968 0.0012581333
00000000: 92ca 4a3a 8693 9839 2720 9e3a dd5e 6d3a
00000010: f3e7 a43a

exp_avg f4 [5, 5]
-0.004911251 -0.07060252 -0.0073573273 -0.02211942 -0.048425928 0.01428716 -0.03470575 -0.0027212845
-0.03940436 0.012335669 -0.014915717 0.010947116 -0.003950494 0.0019509948 0.022144422 -0.036028173
-0.04049267 -0.021029059 -0.06764955 0.020339014 0.016204135 0.049901657 0.016326936 0.034523454
0.011646413
00000000: 8fee a0bb 0e98 90bd bc15 f1bb c933 b5bc
00000010: 445a 46bd b114 6a3c 9e27 0ebd 9457 32bb
00000020: 7766 21bd 8c1b 4a3c 0d61 74bc 885b 333c
00000030: 2573 81bb 86b8 ff3a 3868 b53c 4792 13bd
00000040: a4db 25bd 2245 acbc d98b 8abd 019e a63c
00000050: 89be 843c ae65 4c3d 11c0 853c 7768 0d3d
00000060: 99d0 3e3c

exp_avg_sq f4 [5, 5]
0.0024924255 0.040989228 0.0010033145 0.011985208 0.014156153 0.011264628 0.09701519 0.0028888592
0.056014843 0.00526009 0.004299997 0.013242959 0.0014731573 0.012055783 0.016074542 0.0074986885
0.015808005 0.0018348262 0.018046781 0.0114442175 0.0075661843 0.062348954 0.0011893274 0.027609905
0.0053554745
00000000: f657 233b 52e4 273d a681 833a 9b5d 443c
00000010: 36ef 673c 468f 383c e6af c63d 0453 3d3b
00000020: d26f 653d d55c ac3b fde6 8c3b fff8 583c
00000030: f516 c13a 9e85 453c c2ae 833c 8fb7 f53b
00000040: ca7f 813c 8d7e f03a d8d6 933c 8780 3b3c
00000050: c1ed f73b 9e61 7f3d 35e3 9b3a 2b2e e23c
00000060: fa7c af3b

exp_avg f4 [5]
-0.014426918 0.0002863286 -0.0015404811 -0.014778327 0.014319345
00000000: e15e 6cbc 601e 9639 f8e9 c9ba cc20 72bc
00000010: b09b 6a3c

exp_avg_sq f4 [5]
0.0005536707 0.001644057 0.0004526397 0.00059540966 0.00092009024
00000000: 3624 113a 667d d73a 4650 ed39 4415 1c3a
00000010: 3632 713a

exp_avg f4 [4, 5]
-0.0023879437 -0.033782147 -0.0033354962 -0.008151012 -0.010955102 0.025985865 0.026045123 0.022872543
0.025959563 0.012035022 -0.027874252 0.005833708 -0.0015781902 -0.00015142206 0.003293441 0.0023416562
0.00015724963 -0.018499391 -0.020005854 -0.003955807
00000000: 0c7f 1cbb 265f 0abd 5798 5abb d28b 05bc
00000010: 077d 33bc 4fe0 d43c 955c d53c 335f bb3c
00000020: 26a9 d43c 8a2e 453c 8b58 e4bc b128 bf3b
00000030: 47db ceba 0dc7 1eb9 c5d6 573b 7976 193b
00000040: 60e3 2439 098c 97bc 51e3 a3bc b79f 81bb

exp_avg_sq f4 [4, 5]
0.004663961 0.0069958842 0.0023629356 0.0013369903 0.012741378 0.0034172153 0.006151042 0.0030049104
0.001522254 0.015450391 0.0044323527 0.0006329617 0.0006008737 0.00030568335 0.0014653326 0.0009122948
0.0005911365 0.0025590227 0.0015852085 0.00321075
00000000: 24d4 983b bb3d e53b 7bdb 1a3b f33d af3a
00000010: 36c1 503c 5cf3 5f3b ae8e c93b 08ee 443b
00000020: 5e86 c73a a323 7d3c 453d 913b 57ed 253a
00000030: f483 1d3a 2044 a039 6710 c03a 1127 6f3a
00000040: 80f6 1a3a 47b5 273b c5c6 cf3a 726b 523b

exp_avg f4 [4]
-0.006018359 0.021671608 -0.007533528 -0.007392807
00000000: a835 c5bb a888 b13c d0db f6bb 5c3f f2bb

exp_avg_sq f4 [4]
0.0017503224 0.0017620982 0.000709484 0.0005395655
00000000: 136b e53a 34f6 e63a aafc 393a a171 0d3a

weight f4 [4]
0.98331606 0.99724555 1.0083554 1.0115753
00000000: 9aba 7b3f 7c4b 7f3f ca11 813f 4d7b 813f
