DL103/Main Content/Code - Advanced Workshop/04. HOUSE PRICE/pytorch/house_price_model/model.pth (torch, 21231 bytes, 15 tensors)

0.weight f4 [5, 254]
00000000: 8134 0ac0 54dc 7240 5323 8e41 3d4a 27c0
00000010: e656 d63f aea0 b941 10e9 9041 1b35 af40
00000020: 71d7 5d41 ba53 1541 0e6c b93f 6e04 6741
00000030: d907 b141 ae12 f7c0 eb23 cf41 c63b 0d41
00000040: 9f96 7440 de48 0540 10eb 9341 dd09 9e41
00000050: b7cf 6ec0 c037 74c0 3e03 9240 3500 1e41
00000060: 71ae d641 8ae4 88c0 c72c 3a41 234a ffc0
00000070: 1a8f 10c0 520b 2ec1 c015 a040 524e 0641
00000080: 7321 abbf a626 6440 f76c 65c1 95d0 7d41
00000090: 6f61 9ec0 7d39 2141 0ab4 6040 5f13 bdc0
000000a0: 7c0f 3a3e ab71 ffc0 67b2 ff40 e680 5940
000000b0: 0407 05c1 d9e8 a140 fa14 b8bf 1801 bdc1
000000c0: a9f3 7340 ecaf 4840 436f 3841 ac80 6f2f
000000d0: c70e ba40 3e8c 43c1 43a3 97c1 dcbb 4dbf
000000e0: 7ee9 2f40 e84f 09bf 36ef e63f aa1b dbc0
000000f0: 03fc c840 a054 9dc0 ee96 bbc0 fce5 aec0
00000100: 2761 91c1 f81e 97c0 c340 7141 4fdf d040
00000110: f631 4041 6a18 a0c0 6ceb b3bf a48f 03c1
00000120: fc13 c2c1 23d9 9fc0 5347 b541 5d4d 8640
00000130: 6e99 2a41 32fb 0bc1 f739 8dc1 0911 32c1
00000140: 0f3d 52c1 9dd5 8cbf e451 7f41 5913 8340
00000150: 5ec7 e3c0 6e62 adc0 4065 0b40 175d 193e
00000160: 4947 7f40 81a2 8940 fa8e b9c0 6e67 84bf
00000170: ce13 7540 9f47 4c40 d4fd 9cc0 0969 9ec0
00000180: d863 a140 d69a 9ac0 c20f 9dc0 815a 8140
00000190: 3e15 32c1 d512 1e40 70b6 ab40 7178 ddbf
000001a0: 6dd6 3d40 7570 a2c0 cd76 21c0 8d2e 09c1
000001b0: 2b02 a2c0 2186 b340 f086 0fc1 4aab 6abf
000001c0: 6574 a0c0 ad69 b53f 055e 98c1 eab9 df3e
000001d0: e226 4fc1 ae9b b2c1 b2d0 9541 4a56 9ac0
000001e0: 589a 9bc0 42a1 92c0 db56 9cc0 74ff 0a3d
000001f0: d63e a1c0 35f6 98c0 805c 94c1 7364 15c1
00000200: 68ed 2641 20cd 99c0 ad4c 0841 1a0a d240
00000210: ffee 99c0 8889 edbf d370 2cc0 8d67 98c0
00000220: ac53 0740 d9ad a0c0 7716 9ec0 4dad 9fc0
00000230: e6eb 6ec0 a77f 9a40 58e5 a541 547c 6f41
00000240: ea01 6040 2b56 c640 7461 99c0 36af c6c1
00000250: e755 98c0 f3d7 77c1 2152 10c0 a301 a2c0
00000260: 999a e43f 38b8 80c0 a493 9040 5a13 9e40
00000270: e8bf 9ec0 10fc 813f 4a5e aebf b26f 9ec0
00000280: 1df1 a2c0 a387 f9c0 57e3 0241 5a12 e6c0
00000290: c87c 22c0 0473 6840 0027 acc0 5372 9bc0
000002a0: 6836 0040 b985 9940 3e79 2d41 511d 9dc0
000002b0: f312 3841 b897 3240 61a6 9ac0 c7fb 41c0
000002c0: 33d1 14c0 0fc2 b741 6958 1241 3112 88c1
000002d0: 10c1 55c1 333b 80c1 6144 b740 e0fd 9b40
000002e0: 4aa3 d8c0 5524 cf40 4a25 89bf 0a59 6840
000002f0: 5652 59bf 3211 a040 b05b 55c1 f6c2 8340
00000300: 32e1 2441 633d 27c1 d72b 9dc0 5598 99c0
00000310: e7e2 9140 077a 3340 cb0d aac0 3572 9bc0
00000320: 4bc4 92c0 da7c a1c0 a1df a040 e138 4dc1
00000330: 3d57 a1c0 3e79 9ec0 6257 9cc0 0746 3241
00000340: a537 c540 c78d 9f3f bbb0 6b40 0926 bac0
00000350: b05e 64c1 3a0d a0c0 b990 34c0 2edb 1040
00000360: 95f5 0441 0fc3 953f 462a 07c1 c17c 8d40
00000370: e31f 43c1 2bcd c63e 930e 07c1 a8be 7ebf
00000380: 3b5a e2c0 b80c f640 c9e6 2a40 3f4e 14c1
00000390: 695f bec0 5ed4 8241 7ce6 9dc0 925d 8bc0
000003a0: 9ce4 98c0 7a9a a3c0 9858 77c0 8179 a0c0
000003b0: 6e17 4840 c9f1 9ac0 42fc 8ec1 5ae7 1141
000003c0: 8d2c 2bc0 685f f7c0 48b2 70be 514f a0c0
000003d0: f17b 9dc0 e8b7 a6bf 05dc 4540 f196 99c0
000003e0: f8e8 5ac0 9335 7ac1 f9d8 9a40 8e67 7cc1
000003f0: fec9 b43f 03c0 4640 c4c5 48c1 6d81 29c0
-2.1594546 3.7946978 17.767248 -2.6139061 1.6745269 23.203457 18.1138 5.4752326
13.865098 9.332941 1.4486101 14.438581 22.128832 -7.72103 25.892538 8.827093
3.8216932 2.0825725 18.489777 19.754816 -3.731428 -3.8159027 4.562896 9.875051
26.835176 -4.277898 11.635932 -7.9778 -2.2587342 -10.877764 5.002655 8.394121
-1.3369583 3.564859 -14.339103 15.863423 -4.9493937 10.076535 3.5109887 -5.9086146
0.1816997 -7.9826255 7.9905276 3.3984923 -8.314213 5.059674 -1.4381402 -23.625534
3.8117468 3.1357374 11.5271635 2.1782637e-10 5.814304 -12.221739 -18.954718 -0.80364776
2.7486262 -0.5363755 1.8041751 -6.847127 6.280763 -4.91658 -5.862174 -5.4655743
-18.172438 -4.7225304 15.078311 6.5272593 12.0121975 -5.00298 -1.405622 -8.2225685
-24.259758 -4.995256 22.659826 4.1969438 10.662458 -8.748827 -17.653303 -11.129159
-13.139907 -1.100269 15.957493 4.096112 -7.118087 -5.4182653 2.1780548 0.14976917
3.988726 4.301087 -5.798703 -1.0344064 3.8293338 3.1918714 -4.905985 -4.9503217
5.043438 -4.831401 -4.9081736 4.042298 -11.130186 2.4698994 5.36602 -1.7302381
2.9662125 -5.0762277 -2.522876 -8.573865 -5.0627646 5.610123 -8.970444 -0.91667616
-5.0142083 1.4172875 -19.045908 0.4369653 -12.946993 -22.326015 18.726902 -4.8230333
-4.862591 -4.582185 -4.8856025 0.033935025 -5.0389204 -4.7800546 -18.545166 -9.337024
10.4329605 -4.8062897 8.51872 6.563733 -4.8104243 -1.8557596 -2.6943862 -4.7626405
2.114482 -5.0212216 -4.9402423 -4.989905 -3.733148 4.8280826 20.736984 14.967854
3.5001168 6.1980186 -4.793146 -24.835552 -4.760486 -15.490222 -2.2550128 -5.0627
1.785968 -4.0224876 4.5180225 4.9398623 -4.960926 1.0155048 -1.3622525 -4.9511347
-5.091933 -7.797807 8.180503 -7.18974 -2.538866 3.63202 -5.3797607 -4.8577056
2.0033207 4.7975736 10.8421 -4.9098287 11.504626 2.7905102 -4.83281 -3.0309923
-2.3252685 22.969755 9.1465845 -17.008883 -13.359634 -16.028906 5.727097 4.8747406
-6.7699327 6.473185 -1.0714505 3.6304345 -0.8489126 5.002099 -13.334885 4.117549
10.304979 -10.452487 -4.9116015 -4.799845 4.558948 2.804323 -5.3141837 -4.8576913
-4.5864615 -5.0464907 5.0272985 -12.826386 -5.041899 -4.9523 -4.885667 11.1420965
6.1630425 1.2465142 3.6826618 -5.817143 -14.273117 -5.0016146 -2.8213332 2.2633777
8.309957 1.1700152 -8.447821 4.4214787 -12.195285 0.38828406 -8.441058 -0.9950967
-7.0735145 7.6890526 2.670336 -9.269103 -5.9491467 16.353695 -4.9343853 -4.355172
-4.7779064 -5.112607 -3.8647823 -5.014832 3.12643 -4.842015 -17.873173 9.118982
-2.6745942 -7.7303963 -0.23505509 -5.009682 -4.9213796 -1.3024874 3.091554 -4.7996755
-3.4204693 -15.63808 4.838986 -15.775282 1.4124143 3.1054695 -12.548283 -2.6485245

0.bias f4 [5]
00000000: fa43 a240 e26b d740 cbc2 9841 8a7f 8a41
00000010: 2fc7 463f
5.070798 6.7319193 19.095114 17.312275 0.7764768

2.weight f4 [5, 5]
00000000: 5c79 1841 dae2 3641 63f6 e140 8e6a e240
00000010: 4212 2941 a5ef 0f41 01b8 3641 5f13 b140
00000020: 2e26 c640 4032 2041 0000 0000 0600 0000
00000030: 72a3 aa93 0b00 0000 0000 0000 3426 1641
00000040: 18ed 3741 57fc d540 dce2 e040 15ae 2141
00000050: b473 1b41 db2a 4141 a549 e640 45a5 ea40
00000060: 0821 2341
9.529629 11.430384 7.0613265 7.075507 10.566957 8.996007 11.419923 5.5336146
6.1921606 10.012268 0.0 8e-45 -4.3075203e-27 1.5e-44 0.0 9.384327
11.495384 6.687053 7.027693 10.1050005 9.715748 12.072963 7.19649 7.3326745
10.195564

2.bias f4 [5]
00000000: fb2f 1243 b2d0 1343 5ed0 1d89 c27b 1143
00000010: e1a0 1143
146.18742 147.81522 -1.8996161e-33 145.48343 145.62843

4.weight f4 [1, 5]
00000000: 8d49 2f41 46da 2b41 3ad2 5a1d a3ff 2e41
00000010: a663 2e41
10.955457 10.740789 2.8960744e-21 10.937411 10.899328

exp_avg f4 [5, 254]
00000000: df51 a6c8 2009 f946 0c71 2dc9 4aaf 4448
00000010: 822e 02c8 ec34 3948 6afe 4b48 7c7b 9347
00000020: 3474 c447 e3f1 3346 e23c 4448 9453 a248
00000030: a1b0 a448 838a 1ac8 e7a5 8ec7 68c8 d047
00000040: 4849 9346 3cc4 ffc7 8cc6 9f47 5170 9046
00000050: 0fc8 f046 b182 51c7 565e 3348 e26b 3047
00000060: 5b73 2c48 8020 3b48 cc3e 9748 1d0b ff45
00000070: 6206 e945 e85d 79c6 0ffc 9bc7 a924 29c7
00000080: 540d 70c7 05f1 3644 2267 01c8 0ee1 7647
00000090: cced 3bc6 a675 64c8 993e c4c5 7543 5148
000000a0: 74f1 c0c7 eb63 19c6 fc63 1946 4629 a347
000000b0: 3e92 fec7 4a22 a8c8 4fb2 e746 c03e dfc6
000000c0: 50c4 fa47 fab6 acc8 e793 a647 0232 c0ad
000000d0: ee87 8ac7 fb98 cec7 a18f 88c6 2a7a 0947
000000e0: 4c43 e147 d6f2 9948 5de4 2ec8 e9a2 dfc8
000000f0: b6d2 2447 16a2 d8c5 54f5 5dc6 41eb 64c7
00000100: 9a46 40c5 d45b 1648 0e45 5ec7 af41 1247
00000110: 7f05 99c7 b442 b1c6 d26a 66c6 7dfa 88c7
00000120: 1075 bec6 29ee 3bc6 6729 53c8 02f9 2b48
00000130: 75cc e046 24b3 12c7 c07f 95c6 7e12 98c6
00000140: 4734 2b48 9f1d 2d48 e1c0 b2c8 8811 64c7
00000150: 5090 7dc6 ad22 eac6 b21c 13c7 d4ee 4748
00000160: 687c 3fc7 537a b446 0641 59c6 befc c3c8
00000170: f1b8 4448 a0e5 4ac7 eda1 d8c5 aa4b 19c6
00000180: ed87 6646 172e 99c5 f5a1 d8c5 9509 8048
00000190: e040 90c6 62a8 79c7 ac33 8cc6 1d21 8ac8
000001a0: 0021 7fc7 2e88 66c6 d6f4 6948 78d5 d5c6
000001b0: b6ee 3bc6 b93d 14c8 a957 82c7 2896 8fc7
000001c0: 2b4c 19c6 3bab 9148 f4f7 66c6 cf4b 93c8
000001d0: c62d 3cc6 4f6f db46 9655 42c7 f42d 99c5
000001e0: 962e 99c5 b848 19c6 97a1 d8c5 2681 ab47
000001f0: d750 85c6 452d 99c5 a49f 1fc8 025c 8dc7
00000200: e0ae edc6 af2d 99c5 2385 0fc8 688f 10c5
00000210: c02d 99c5 3713 5ec6 2e0c 8848 4ac3 76c7
00000220: 2b51 2546 c750 85c6 79a2 d8c5 9478 2bc6
00000230: 4662 39c8 af5c 87c7 092b 88c7 2d43 68c7
00000240: ca18 f7c7 6b5f 6c46 7a2d 99c5 f2d4 59c6
00000250: 18d6 8d48 3112 60c7 1b42 0fc7 b4ee 3bc6
00000260: 5c31 e247 30bd bac8 b4dd d648 caec 9ec8
00000270: 5b78 2bc6 6dd9 e848 e001 a6c8 a4a2 d8c5
00000280: 6322 73c6 858a bac7 414e bc47 9e5e 58c7
00000290: e62e 3dc8 5957 5b48 8073 c545 832e 99c5
000002a0: 11ca c448 da9e 09c5 a39a 11c8 a334 b4c7
000002b0: d1e2 f5c6 fe54 2fc8 1d2e 99c5 f05b 1c48
000002c0: 27d3 8247 60fc 1ec7 f195 9046 d6b6 15c7
000002d0: 5240 88c8 ec0c 63c7 33ce 6548 23fd 7547
000002e0: 6034 38c7 8fe6 9b46 0dd5 3c48 0b88 7bc7
000002f0: cfd3 9dc6 a676 f6c6 f7d5 47c8 a67d d847
00000300: 21d0 6948 d456 7dc8 04a2 d8c5 962d 99c5
00000310: 75d5 5d48 ee3f 0bc7 fe5d e246 832e 99c5
00000320: 3d99 7ec8 4025 08c7 3625 0847 1cd8 0fc7
00000330: 37d6 8ac6 aaa2 d8c5 f62e 99c5 7095 2547
00000340: 47b5 20c8 1cbf 61c6 d1fc d448 51b4 a5c8
00000350: b796 b0c6 134c 19c6 7810 a5c7 9ace 46c7
00000360: fbf2 f5c6 23f2 c847 d7cf 04c6 6096 6948
00000370: 9ec0 18c7 855b 9dc7 3094 2bc6 bea7 41c8
00000380: 48fd 8c48 9fa4 7dc7 aeb4 3cc8 bde7 d8c5
00000390: 05b6 dac6 2ae5 acc7 bbb3 04c6 6080 8447
000003a0: 3c2d 99c5 7a5c a2c6 269b b2c7 51ee 3bc6
000003b0: 4d71 5f47 6b41 dec6 e393 4dc6 8b29 f546
000003c0: 8032 e5c6 c825 74c7 4689 bc46 57b4 04c6
000003d0: 2ba2 d8c5 6588 a8c7 4bed d1c7 952d 99c5
000003e0: 7355 ff47 1ac3 7048 0cbc a8c6 126a 8fc7
000003f0: 1de6 2bc7 7af8 d1c7 5209 66c6 cf6c d347
-340622.97 31876.562 -710416.75 201405.16 -133306.03 189651.69 208889.66 75510.97
100584.41 11516.472 200947.53 332444.62 337285.03 -158250.05 -73035.805 106896.81
18852.64 -130952.47 81805.09 18488.158 30820.03 -53634.69 183673.34 45163.883
176589.42 191618.0 309750.38 8161.389 7456.798 -15959.477 -79864.12 -43300.66
-61453.33 731.7659 -132508.53 63201.055 -12027.449 -233942.6 -6279.8247 214285.83
-98786.91 -9816.9795 9816.996 83538.55 -130340.484 -344338.3 29657.154 -28575.375
128392.625 -353719.8 85287.805 -2.185008e-11 -70927.86 -105777.96 -17479.814 35194.164
115334.59 315286.7 -179089.45 -458007.28 42194.71 -6932.2607 -14205.332 -58603.254
-3076.4126 153967.31 -56901.055 37441.684 -78346.99 -22689.352 -14746.705 -70132.98
-24378.531 -12027.54 -216229.61 176100.03 28774.229 -37555.14 -19135.875 -19465.246
175313.11 177270.48 -366087.03 -58385.53 -16228.078 -29969.338 -37660.695 204731.31
-49020.406 23101.162 -13904.256 -401381.94 201443.77 -51941.625 -6932.2407 -9810.916
14753.981 -4901.761 -6932.2446 262220.66 -18464.438 -63912.383 -17945.836 -282888.9
-65313.0 -14754.045 239571.34 -27370.734 -12027.678 -151798.89 -66735.32 -73516.31
-9811.042 298329.84 -14781.988 -301662.47 -12043.443 28087.654 -49749.586 -4901.744
-4901.823 -9810.18 -6932.1987 87810.3 -17064.42 -4901.6587 -163454.56 -72376.016
-30423.438 -4901.7104 -146964.55 -2312.963 -4901.7188 -14212.804 278625.44 -63171.29
10580.292 -17064.389 -6932.309 -10974.145 -189833.1 -69305.37 -69718.07 -59459.176
-126513.58 15127.8545 -4901.6846 -13941.236 290480.75 -57362.19 -36674.105 -12027.676
115810.72 -382441.5 440045.62 -325478.3 -10974.089 476875.4 -339983.0 -6932.33
-15560.597 -95509.04 96412.51 -55390.617 -193723.6 224605.39 6318.4375 -4901.814
403024.53 -2201.9282 -149098.55 -92265.27 -31473.408 -179539.97 -4901.764 160111.75
66982.305 -40700.375 18506.97 -38326.836 -279042.56 -58124.92 235320.8 62973.137
-47156.375 19955.28 193364.2 -64392.043 -20201.904 -31547.324 -204631.86 110843.3
239424.52 -259419.31 -6932.252 -4901.698 227157.83 -35647.93 28974.996 -4901.814
-260708.95 -34853.25 34853.21 -36824.11 -17771.107 -6932.333 -4901.87 42389.438
-164565.11 -14447.777 436198.53 -339362.53 -22603.357 -9811.019 -84512.94 -50894.6
-31481.49 102884.27 -8499.96 239193.5 -39104.617 -80567.04 -10981.047 -198302.97
288746.25 -64932.62 -193234.72 -6940.9673 -27995.01 -88522.33 -8492.933 67840.75
-4901.6543 -20782.238 -91446.3 -12027.579 57201.3 -28448.709 -13156.972 31380.771
-29337.25 -62501.78 24132.637 -8493.085 -6932.271 -86288.79 -107482.586 -4901.6978
130730.9 246540.4 -21598.023 -73428.14 -44006.113 -107504.95 -14722.33 108249.62

exp_avg_sq f4 [5, 254]
00000000: 70c5 4653 c6b7 6153 be86 a453 e0a4 2a54
00000010: 0ee7 f052 b1c9 e353 fe2a b453 0ee0 6354
00000020: 7409 0f54 239d 8452 1bb7 3654 a081 2d54
00000030: 0d13 1f54 3ff3 b953 1311 2b51 939e e753
00000040: bc5e 7c53 58d7 6e52 4b3c e053 7da5 8953
00000050: a97c 7853 b7fa 8c51 28f4 0254 0ee0 6c53
00000060: 6787 d853 eb51 1154 cdc0 2054 be8c 4653
00000070: e5a6 be53 d013 5a52 a99c e052 8c7a 6453
00000080: 6848 ee52 929d 0352 1730 9753 44d7 5a53
00000090: 0722 5950 279e 6d54 b45b 9551 cb87 7b53
000000a0: e377 c352 3de8 1250 3de8 1250 de38 a453
000000b0: 11be 7b53 afc7 5c53 2253 a353 f0c4 e751
000000c0: 4860 1854 82ad 5352 090d 8453 4e72 f137
000000d0: 5c46 1953 3714 1d53 9e07 1e52 9f22 ec51
000000e0: e193 1f53 cf96 9752 7e70 8d52 2db6 c852
000000f0: cdbf f852 8f17 904f 05b7 f250 4db5 a751
00000100: 022d 8951 c6e9 8a53 c5a3 8c52 2245 6352
00000110: 539e 0853 f953 4151 f276 a350 ee4e 2652
00000120: 9df0 b252 0822 5950 89fc 9d52 e522 8253
00000130: c079 6854 cab1 4552 7432 0951 22f5 bc51
00000140: 6f71 e152 40cf 9254 25ab d754 edce 0f54
00000150: 9ef9 2151 66ad a851 fe20 0952 6536 9a52
00000160: eff2 1452 155b 1a52 bf16 4751 4c5f aa52
00000170: 46ee 7452 7453 af51 8e17 904f 3f6c 1050
00000180: ce69 a350 5bed 0f4f 9017 904f 0588 4a53
00000190: b9df 0151 0d54 8751 a5e5 6352 3e1a 9b53
000001a0: 514c 4f52 d369 a350 a769 8353 8cae 1d51
000001b0: 0422 5950 e6c5 a153 4402 a551 cbc1 2452
000001c0: 23db 1350 8d70 9c53 47a7 a450 a6ab ad53
000001d0: 87f3 9550 7ed8 c453 65fb 2452 5bed 0f4f
000001e0: 5eed 0f4f 23db 1350 9317 904f 1e2a b951
000001f0: 72a4 da50 61ed 0f4f 1569 1552 25b4 7954
00000200: aa8e a752 5eed 0f4f b3bc 3253 7804 6a52
00000210: 5eed 0f4f 5f75 0052 2918 e253 ec19 8952
00000220: 6eb7 5151 73a4 da50 9317 904f 6fbc 3450
00000230: 7354 1f52 6dc7 7854 6164 9c52 45cd 5b52
00000240: 2c15 3453 ea99 7852 61ed 0f4f e744 e951
00000250: 7609 e353 62a9 8952 2547 4852 0422 5950
00000260: 18e4 9953 96b1 cd53 3146 4b54 3db7 8d54
00000270: 6fbc 3450 6104 fe53 82a7 0754 9317 904f
00000280: dbc7 b550 bf92 9e52 0d9c a252 0644 7752
00000290: 279a 8c53 d8a3 e553 9c6a 9f51 5ded 0f4f
000002a0: d938 a154 629e 9651 ec89 9853 626e aa53
000002b0: f2d2 8d51 d276 6853 5bed 0f4f 1868 1153
000002c0: ac6e fa53 4912 0554 ba8d 2d53 a5af bf53
000002d0: 7d56 a852 5804 0353 dcfd de53 fcb1 fe51
000002e0: e4cd 4d52 0904 a253 a264 8f52 5caf ba51
000002f0: e606 9e51 a00c 1452 bbd2 1452 fb0e 8b52
00000300: 7b55 0052 8056 0d52 9017 904f 5fed 0f4f
00000310: 0ba8 a453 2b49 7251 8bc9 c352 5ded 0f4f
00000320: 628e 2e53 ea28 e451 ea28 e451 15f3 f251
00000330: 2223 ed50 9417 904f 60ed 0f4f f11f 2252
00000340: 336a 8154 60fa 3651 dc69 b253 2654 ba53
00000350: ecea 8951 3d6c 1050 17c3 b451 6974 b451
00000360: 2f46 3452 710a 2752 f26b df4f 17e4 7f53
00000370: 20d7 7f51 1a2e 4954 6041 4650 67dd 5153
00000380: 70ba dc53 a1d9 ac53 d116 a353 db03 914f
00000390: 1b7a bd51 3171 3352 b162 d84f a1f4 1b52
000003a0: 61ed 0f4f 944d 7751 0c6e 7c52 0622 5950
000003b0: ae78 f551 eb18 c251 f5fb 2b51 e9ac 0e52
000003c0: 21fa 9a51 08b6 c751 141f f951 b362 d84f
000003d0: 9217 904f f50f 1c52 acad bf54 5fed 0f4f
000003e0: 1cb9 7554 c87a a952 d2cd 0151 5e83 2052
000003f0: 30ab 3754 01d2 ba54 966f b052 a755 0553
8.53716e+11 9.6945085e+11 1.4132705e+12 2.9316423e+12 5.173343e+11 1.9566828e+12 1.5476308e+12 3.9148664e+12
2.4573557e+12 2.84786e+11 3.1390242e+12 2.9808164e+12 2.7328777e+12 1.5972999e+12 4.5920367e+10 1.9895958e+12
1.08392114e+12 2.5645377e+11 1.9261684e+12 1.1823739e+12 1.06724334e+12 7.5687715e+10 2.249768e+12 1.0173713e+12
1.8599692e+12 2.4965785e+12 2.7617177e+12 8.527648e+11 1.6376876e+12 2.3415882e+11 4.823505e+11 9.8130854e+11
5.117085e+11 1.4132108e+11 1.2986938e+12 9.399144e+11 1.4571544e+10 4.0822424e+12 8.018608e+10 1.080315e+12
4.19765e+11 9.858774e+09 9.858774e+09 1.4106574e+12 1.0812256e+12 9.4824294e+11 1.4029488e+12 1.2443019e+11
2.6178014e+12 2.2728727e+11 1.1343088e+12 2.8782666e-05 6.583104e+11 6.74649e+11 1.6968316e+11 1.2677414e+11
6.853808e+11 3.255351e+11 3.0373885e+11 4.3102493e+11 5.341849e+11 4.834926e+09 3.2576645e+10 9.003766e+10
7.36457e+10 1.1932551e+12 3.020215e+11 2.4402936e+11 5.867718e+11 5.1896095e+10 2.1939851e+10 1.785722e+11
3.842705e+11 1.4571545e+10 3.3927335e+11 1.1178624e+12 3.9939002e+12 2.1227284e+11 3.682856e+10 1.0144581e+11
4.8413537e+11 5.0443384e+12 7.4103144e+12 2.4706078e+12 4.347985e+10 9.055796e+10 1.4724101e+11 3.3116878e+11
1.5993273e+11 1.6573827e+11 5.3442507e+10 3.6587163e+11 2.629924e+11 9.412742e+10 4.8349256e+09 9.692052e+09
2.1932962e+10 2.4146972e+09 4.8349266e+09 8.698654e+11 3.4862764e+10 7.265384e+10 2.447026e+11 1.3323204e+12
2.2258465e+11 2.1932972e+10 1.1288265e+12 4.2327392e+10 1.457154e+10 1.3896198e+12 8.858845e+10 1.7690649e+11
9.922448e+09 1.3438064e+12 2.2099409e+10 1.4918183e+12 2.012612e+10 1.6908915e+12 1.7714808e+11 2.4146972e+09
2.414698e+09 9.922448e+09 4.834928e+09 9.9409445e+10 2.9345681e+10 2.4146988e+09 1.6042828e+11 4.2898767e+12
3.5982652e+11 2.414698e+09 7.6767e+11 2.5127433e+11 2.414698e+09 1.3793124e+11 1.9421359e+12 2.944227e+11
5.629535e+10 2.9345683e+10 4.834928e+09 1.2128992e+10 1.7107916e+11 4.2739908e+12 3.358495e+11 2.3601042e+11
7.734493e+11 2.6693353e+11 2.4146988e+09 1.2523542e+11 1.9502326e+12 2.9562615e+11 2.1504677e+11 1.457154e+10
1.3219135e+12 1.7668954e+12 3.492224e+12 4.869317e+12 1.2128992e+10 2.1819903e+12 2.3305236e+12 4.834928e+09
2.439819e+10 3.405334e+11 3.492014e+11 2.6549954e+11 1.2077633e+12 1.9725927e+12 8.558605e+10 2.4146977e+09
5.539548e+12 8.086279e+10 1.310298e+12 1.4639927e+12 7.614118e+10 9.984259e+11 2.4146972e+09 6.2451666e+11
2.1511972e+12 2.2861497e+12 7.454071e+11 1.6465712e+12 3.6150277e+11 5.627136e+11 1.9154836e+12 1.3673847e+11
2.2098064e+11 1.3917048e+12 3.0793433e+11 1.00225745e+11 8.484007e+10 1.5896674e+11 1.5979766e+11 2.986259e+11
1.3779748e+11 1.517604e+11 4.8349266e+09 2.4146982e+09 1.4143879e+12 6.5038103e+10 4.2044998e+11 2.4146977e+09
7.497131e+11 1.2249237e+11 1.2249237e+11 1.3043254e+11 3.1828021e+10 4.8349286e+09 2.4146985e+09 1.7408015e+11
4.44666e+12 4.911779e+10 1.5325604e+12 1.6005514e+12 7.404398e+10 9.69205e+09 9.70459e+10 9.688089e+10
1.935679e+11 1.7935868e+11 7.496787e+09 1.0990434e+12 6.8676616e+10 3.4562475e+12 1.3304693e+10 9.013627e+11
1.8960414e+12 1.4847712e+12 1.4009249e+12 4.865898e+09 1.0172468e+11 1.9267455e+11 7.260693e+09 1.6745603e+11
2.4146988e+09 6.6384904e+10 2.7104451e+11 1.4571543e+10 1.3178646e+11 1.0420521e+11 4.616666e+10 1.5319658e+11
8.320268e+10 1.0721906e+11 1.3374603e+11 7.260694e+09 4.8349276e+09 1.6757065e+11 6.58602e+12 2.4146982e+09
4.2214904e+12 3.639547e+11 3.4843992e+10 1.7234969e+11 3.1554043e+12 6.4190976e+12 3.7889317e+11 5.7266766e+11

exp_avg f4 [5]
00000000: 4b3f 0d48 d11f 9448 c7ea 1747 3813 3e46
00000010: 08d7 6748
144637.17 303358.53 38890.777 12164.805 237404.12

exp_avg_sq f4 [5]
00000000: 05b0 f553 f610 8c53 b816 db52 a967 fc52
00000010: 841f 0954
2.1104402e+12 1.20316e+12 4.704895e+11 5.4203544e+11 2.355757e+12

exp_avg f4 [5, 5]
00000000: b8dd 8049 1333 d248 bea8 1d49 c285 2f49
00000010: 7cc3 4749 5dc6 7c49 0515 ce48 e28f 1a49
00000020: 6111 2c49 87ec 4349 0400 0000 0500 0000
00000030: fe3f 8c94 0f00 0000 0400 0000 d9a5 8049
00000040: e3e3 d148 9568 1d49 de3f 2f49 c86c 4749
00000050: ef31 8049 6635 d148 c0e0 1c49 aea9 2e49
00000060: 44b9 4649
1.055671e+06 430488.6 645771.9 718940.1 818231.75 1.0353658e+06 422056.16 633086.1
704790.06 802504.44 6e-45 7e-45 -1.4161628e-26 2.1e-44 6e-45 1.0538831e+06
429855.1 644745.3 717821.9 816844.5 1.0501739e+06 428459.2 642572.0 715418.9
813972.25

exp_avg_sq f4 [5, 5]
00000000: 5b8d 0e57 e78f 4e55 93d9 3655 fcb5 4f55
00000010: 8388 0357 fe8e 0957 c24d 4755 1871 3055
00000020: 0071 4855 6bd3 fd56 4b73 0d40 ca87 e441
00000030: 9e54 7b42 d2ca b541 4763 ce3f 1a54 0e57
00000040: 1a3a 4e55 dd8f 3655 e262 4f55 4c52 0357
00000050: 5921 0d57 c47f 4c55 0907 3555 9da3 4d55
00000060: 4e38 0257
1.5673777e+14 1.4194841e+13 1.2565349e+13 1.4273783e+13 1.4462234e+14 1.5124724e+14 1.3696049e+13 1.2124986e+13
1.3774229e+13 1.3954224e+14 2.210162 28.566303 62.832634 22.724033 1.6124047 1.5649186e+14
1.4171809e+13 1.2545563e+13 1.4251475e+13 1.4438949e+14 1.5517437e+14 1.405307e+13 1.2440114e+13 1.4131412e+13
1.4317834e+14

exp_avg f4 [5]
00000000: 3a3f c445 ddb2 c045 461d b38a 7be7 c345
00000010: 5647 c345
6279.9033 6166.358 -1.7248084e-32 6268.935 6248.917

exp_avg_sq f4 [5]
00000000: 9e2a 094f 9460 044f c6a7 4142 79f5 084f
00000010: bdcc 074f
2.3012716e+09 2.2209219e+09 48.41384 2.2977887e+09 2.278342e+09

exp_avg f4 [1, 5]
00000000: de8b 404a d4fc 314a 296c 161e 953a 3c4a
00000010: 7efb 424a
3.1546795e+06 2.916149e+06 7.963301e-21 3.0839412e+06 3.1945915e+06

exp_avg_sq f4 [1, 5]
00000000: e7b7 1a58 f213 0958 4ed8 bc42 f69f 1258
00000010: 53be 1a58
6.804586e+14 6.02875e+14 94.42247 6.448629e+14 6.805689e+14
