DL103/Main Content/Code - Basic Workshop/02. HEPATITIS C/pytorch/hepatitis_c_model/model.pth (torch, 8719 bytes, 8 tensors)

0.weight f4 [50, 13]
00000000: 67f0 813e 9139 793e 0297 883e f705 b1bc
00000010: e1e7 7abe f943 3bbe 0610 59bd a2ad 0d3d
00000020: d60d babd 4a0a 27be ea58 1cbc 9e2e 233e
00000030: 6213 7c3e 7dd8 03be f27f 13be 6320 06be
00000040: def2 b53d d05f 4c3e 94c9 9ebd 49e7 093e
00000050: fcf1 1abd c3ed bebd e07e 0ebe aa02 253e
00000060: eff9 38be e8e9 5d3d db03 09be b264 6ebe
00000070: 5a9b a5bc 10b1 b43d da39 81be 3f52 b53c
00000080: e44f dabd 4d56 2cbd da57 00be e7d0 0abd
00000090: dc69 7a3e 15cf 86be 1ac6 09be 56a4 5d3e
000000a0: 640e 2abc 7ebb bebc 4043 cf3d 7566 2fbe
000000b0: 6173 ae3d 447d 2dbe 37da 61bd 6360 403e
000000c0: 5a70 023c 01e4 63be 9414 433e fe2f 55be
000000d0: e124 c2bc 61d3 b0bb 96fd aebd a22c 013e
000000e0: 3877 8abd e9ee 173e 0c56 0f3e 4af1 54be
000000f0: cbe3 553e 533e 0dbc aa5b 613e 8b2b 353e
00000100: b9de afbd f123 1dbd c4b0 f4bd 7d65 a5bd
00000110: 64b0 583e 5e32 923e 28fa 003e 6b56 793e
00000120: 4d4f da3d 3168 8c3d b5c2 f9bd 6b7b 8f3e
00000130: 8beb 52be 53e0 593e 30e9 ccbd 4951 eabd
00000140: 5a71 703c d4da 1c3e 43c1 a1be c870 60be
00000150: e747 72bd f0ce 90be cd8c 2dbd ab41 69be
00000160: 3fee 71be 2e44 b6bd cc6a 30be 600f dbba
00000170: 059d 4e3e ee54 84bd 6784 603d 2ef0 103e
00000180: 0e67 913d e88b 6a3c 7d38 5f3d 1a34 163e
00000190: b301 87be caab c2bd f0b6 843e b6b6 b1bd
000001a0: 470f 4c3e 1ee1 78be d3de 773d 4614 e2bc
000001b0: 05fd 56be 4a8a a63d 1058 1ebd 7fbd 88be
000001c0: 6fbd b6bd a3d1 813e 391e 503d e99d 28be
000001d0: 8561 17be a114 15be 7947 28be 3312 67bd
000001e0: e386 69be 2041 713e 9dd5 473e 6da0 533e
000001f0: 212f 203d 6b8f 693e 6103 fdbd 2c6f 4ebe
00000200: 8e26 08be f575 d63d 148e 99be b4bd febd
00000210: 163a df3d c1a1 7f3e 95c4 493e 4d29 e83d
00000220: 908c 50be 3e04 a83d 9c3f b3bd ca5e c03b
00000230: 076e 13bd 27de 793e 9430 493e 0e9c 023d
00000240: d0a6 90be 1e41 6b3e 61c1 373e d719 f93d
00000250: 3bc2 68be da7a 71be 6c9c c33d 0523 86be
00000260: 7505 243e 06c0 ee3c a8b4 773e 7d31 da3d
00000270: f3bd 1c3e 7a9b cb3d fd86 18be 85fb 1fbe
00000280: bfeb 8cbe 0df7 45bd 8567 103c 7a4a b3bd
00000290: 82c4 913d 4b2d 443e 5e9b c63c 8654 c4bd
000002a0: 75d0 81be f6ff 33be 52a4 b43d 967b 5bbe
000002b0: 4136 72be be7e 123d 5468 e3bc bdf4 7ebe
000002c0: 61d8 ac3d 4d24 ca3d fc72 80be ccd2 75bc
000002d0: c7d5 2f3e 51c9 753e 6119 42be 44f1 1ebe
000002e0: f242 4cbe cee4 2bbe a0b9 08be b1b3 6b3e
000002f0: cdbc d2bb 1fbf 61be bd79 59be 1752 62be
00000300: 4607 8ebe 84b1 9a3b c0a4 273d 1931 313e
00000310: 3303 5e3e aecb 643e 9f10 663e c254 debd
00000320: 8681 57be 577e c9bc a252 1ebd d719 c1bc
00000330: e4b7 5e3c 37a7 1dbe 63d8 6dbe c2e9 f2bd
00000340: b0ce c03d 88cb da3d 9e51 98be c0e7 94be
00000350: 8838 e7bc 1baa d9bd 9125 b5bd 9e2e 90be
00000360: d7c7 1c3e 22e6 6eb9 4574 243e f7eb 31be
00000370: a042 83be 6cad 6fbc 65fa 9f3d 55f0 263e
00000380: 5b5b e0bc 7ab0 4c3e 44f0 22be 73f9 68be
00000390: c74b 01be 064e dbbd 155e 973d 5621 663e
000003a0: 80d8 863e a201 0abe 59cd b6bd 2c13 d9bc
000003b0: a14b ef3d 2833 4bbd 8209 0bbe c4bc e53c
000003c0: e339 4dbe 970e 603e dfa4 74be 2291 89be
000003d0: f078 163b 071c 4dbe 4f8f eebd a952 033e
000003e0: c735 b439 7704 9ebd 30c1 96be abc3 8bbd
000003f0: 4663 abbd 0d5e 503e 8f81 cc3d 8136 37bd
0.25378725 0.24338366 0.2667771 -0.02160929 -0.24502517 -0.18287648 -0.052993797 0.034589417
-0.0908467 -0.16312519 -0.009542683 0.15935752 0.24616769 -0.12875552 -0.14404276 -0.13098292
0.08884214 0.19958425 -0.07753292 0.13467135 -0.03782843 -0.09322693 -0.13915586 0.16114298
-0.18064092 0.05417815 -0.13380377 -0.232806 -0.020215679 0.088228345 -0.2523945 0.022133945
-0.10659769 -0.04207449 -0.12533513 -0.03389063 0.24454445 -0.26329866 -0.13454476 0.2164472
-0.010379408 -0.023282763 0.10120249 -0.17128928 0.085181005 -0.16942316 -0.055139747 0.18786769
0.007961357 -0.22254945 0.19050819 -0.20819089 -0.023699226 -0.005396292 -0.085444614 0.12614682
-0.067610204 0.1483723 0.13997668 -0.2079517 0.20887677 -0.008620816 0.22007623 0.17692392
-0.08587403 -0.038364355 -0.11947778 -0.08075998 0.21161038 0.28554052 0.12595427 0.24349372
0.10659657 0.068558104 -0.121953405 0.28023848 -0.20597665 0.21276979 -0.100054145 -0.11441285
0.014675463 0.15317851 -0.3159276 -0.21918023 -0.059150603 -0.2828288 -0.042370606 -0.22778957
-0.2362604 -0.08899723 -0.1722824 -0.0016712956 0.20177086 -0.064615116 0.05481377 0.14154121
0.07099734 0.014315583 0.05449723 0.14668313 -0.26368484 -0.095054224 0.2592082 -0.086774275
0.19927703 -0.24304625 0.060515236 -0.027597558 -0.20994957 0.08131845 -0.0386582 -0.26707074
-0.0892285 0.25355253 0.050810073 -0.16466488 -0.14783294 -0.1455865 -0.16433515 -0.05641384
-0.22805361 0.2356 0.19515081 0.20666666 0.039107446 0.22808616 -0.1235416 -0.20159596
-0.13295957 0.10471717 -0.2999121 -0.12438527 0.10899751 0.24964048 0.19703896 0.113360025
-0.2036612 0.08203934 -0.08752367 0.0058706747 -0.035993602 0.2440115 0.19647437 0.031887107
-0.28252268 0.22974059 0.17944862 0.12163132 -0.22730343 -0.2358202 0.095513195 -0.26198593
0.16017707 0.029144298 0.24190009 0.106539704 0.15306835 0.09941764 -0.14895244 -0.15623291
-0.2752361 -0.04833131 0.0088137435 -0.0875444 0.07117559 0.19157903 0.024244007 -0.09586434
-0.25354353 -0.1757811 0.08820404 -0.21433863 -0.23653509 0.035765402 -0.027759708 -0.24898048
0.084397085 0.09870205 -0.25087726 -0.015003871 0.17171393 0.24002577 -0.18954994 -0.15521723
-0.19947413 -0.16786501 -0.1335206 0.23017766 -0.006431198 -0.22045563 -0.21237846 -0.22101627
-0.27739924 0.0047208685 0.040928602 0.17303886 0.21680908 0.22343323 0.22467278 -0.1085601
-0.21045503 -0.024596376 -0.038653024 -0.023571892 0.013593648 -0.15395819 -0.23227076 -0.11860992
0.094144225 0.10683352 -0.2974977 -0.2908306 -0.028225198 -0.10628148 -0.08845056 -0.28160566
0.15310608 -0.0002278318 0.16059978 -0.1737517 -0.25636768 -0.014628749 0.07811431 0.16302617
-0.027387312 0.19989195 -0.15911967 -0.22751407 -0.12626563 -0.10708241 0.073909916 0.22473654
0.2633705 -0.13477185 -0.08925886 -0.0264984 0.11684347 -0.049609333 -0.13577846 0.028044112
-0.20041613 0.21880566 -0.23891018 -0.2686854 0.0022960268 -0.20030223 -0.11648428 0.12824501
0.00034372343 -0.07715695 -0.29444265 -0.0682443 -0.08368544 0.20348378 0.09985649 -0.044729713

0.bias f4 [50]
00000000: 8ef1 bd3d c6c9 553e d4bc 41be 2759 833e
00000010: a64f 7abd 71e6 17bb a8a6 263e 09e6 06be
00000020: 2f2d c6bd 3046 b2bd 88d0 603e fbad 78be
00000030: b983 c83d d8c7 5dbe 58ff 9bbd 9caf d5bd
00000040: 741b 08be 708b ddbd 719c ba3d ea70 2fbe
00000050: c69c 2cbd 1c8b f1bd 6d92 733d 399d eb3c
00000060: 26e8 f1bd 2ef7 9cb9 e7cd 853e 9f43 d9bc
00000070: f479 38be 00fd 84be 6ba9 5d3e 10a5 0f3e
00000080: fbb6 973e 4101 343e 5681 cbbc 1c6c 4e3c
00000090: ac7a 4d3e 5864 0d3e 803e c5bd 275b 8bbe
000000a0: 621a 5f3e c92e 2c3e 67be c9bc 331a 433e
000000b0: e0b9 bebb dd97 7fbe 21de 3c3d c996 44be
000000c0: 90e6 21be 4011 5e3e
0.092745885 0.20877752 -0.18919688 0.25653955 -0.061111115 -0.0023178125 0.16274512 -0.13173689
-0.09676587 -0.087047935 0.21954548 -0.24285118 0.09790749 -0.21658266 -0.07617062 -0.104338855
-0.13291723 -0.10817611 0.0911187 -0.17132917 -0.0421417 -0.11794111 0.059465814 0.028761493
-0.11811857 -0.00029938802 0.26133654 -0.026521502 -0.18015271 -0.25974274 0.21646659 0.1402781
0.2963179 0.17578603 -0.024841946 0.0125990175 0.20066327 0.1380781 -0.096310616 -0.2721798
0.21787408 0.16814722 -0.024626924 0.19052963 -0.005820498 -0.24960275 0.046110276 -0.19198145
-0.15810609 0.21686268

2.weight f4 [10, 50]
00000000: 099d 4ebe 1630 243d 7fcd 3b3d f2cb 88bd
00000010: be2d a23b c7ee 01be 8c91 88be 4654 823b
00000020: d345 103e 6928 333e 1d92 383d 6a48 5e3e
00000030: 24c7 8fbc ce53 c7bd 49da 253d 726e d1bd
00000040: 1f4f 373e d3cb 08bd fb92 f4bd 26f8 ad3d
00000050: f2fb 7fbe a370 9b3e 8da2 623d 15cc 873e
00000060: afda 9f3e 0dde e63d 733a dcbd 3e13 493e
00000070: c20c 5d3e b671 99bd 0f4f d63d d18c 2c3d
00000080: ed77 25be 547c 81bc f57f 8fbd 2f2a efbd
00000090: b897 69be 631d dc3e 8e3d df3d e434 233e
000000a0: 1cf7 e83e 404e 54be 1848 3f3e a900 9e3d
000000b0: 536f 8ebe 89b0 d7bd c3dc 8dbc 7519 9b3d
000000c0: 5d71 273d ed80 3b3e d4a1 603b a94b 9c3d
000000d0: 5d1f afbd a280 2c3d 1f31 973c e206 bdbd
000000e0: f9d7 00bb f658 b6bd 2b4d d5bd cf70 19bc
000000f0: 526d 13be 13cd de3d 8c6b 023e 57e9 c9bd
00000100: 25ae d43d 3920 413d fa62 d73d 9ed9 1bbd
00000110: 5ca0 59bc 70da 3e3d f02a e9bc e7dc 7fbd
00000120: 834d 3cbd 69d3 ba3d 2a51 ebbd d5f2 2a3d
00000130: 96a5 5ebd 1da6 d43d e10c 08be 5b26 9fbd
00000140: 596a e73d e485 cdbc 333c df3d b683 623d
00000150: a26b 013d ac8a d7bd 6999 c8bd e31f fabd
00000160: b122 87bd f804 76bd 4593 c13c 037c 0bbd
00000170: c67c 59bd f761 6e3d 12f0 73bd 2bac 733d
00000180: c668 583c c16d 283d e284 da3c b3ec 8abb
00000190: 6068 aebd e0fe 213e 1f14 67bd d994 0cbe
000001a0: 351f 81bd 62c0 fcbc f8a4 a33d d923 e0bc
000001b0: 30aa bfbd 631a 03be 8222 12be 3d9e 7fbd
000001c0: c031 1c3e 17a9 bdbd 2c8f 86bd c177 78bd
000001d0: 6fa8 91bc 6c06 c1bd 9122 9abd ca34 c8bd
000001e0: 6c4b 27bd 29dd 123e f010 c53d 5d1d 99bd
000001f0: ae2a ab3d 5479 753c f5b2 cbbd cb10 1abe
00000200: e256 1b3e 83cc 02be 6285 d43c 0c2b 663b
00000210: 5a28 14be 52fc d0bd 06b3 af3d 4958 c9bd
00000220: 3d78 3bbd 99e3 613e efcd 093e 1f55 efbd
00000230: 1e2a 103e b30d aebd ac0c a9bd 823a cebd
00000240: e9df ce3b 490a 5d3d 0c59 f2bd 04b9 e03d
00000250: 16a3 9b3c b5e4 90bd 8af7 dbbd 74e3 fe3d
00000260: f8ae 5e3a 7bfe a53c 758c 6ebb 5905 c1bd
00000270: ec62 d9bd 64a7 f7bd 0898 953d 166e 85bd
00000280: 9f2f a7bc a192 55bd 9801 113e 3ebe d3bd
00000290: 6c58 19bd 13eb 84bd 9828 d4bd 429a a8bd
000002a0: ec98 5fbd eb28 b03c 8d35 4abd 61b6 c4bc
000002b0: 7212 c13d 6f28 f7bd f86c a0bc 8622 aa3d
000002c0: a8e8 b3bd cd9f 08be 9e40 0ebe 2dff a3bd
000002d0: 1de8 213d db04 3d3c ffa8 493d 77f5 183e
000002e0: 5c25 853d 1412 75bd 648b 8aba 32d9 623c
000002f0: d749 07bd d350 d2bd d8fe 7a3d 8b7b 033c
00000300: 8ef5 903d 649f 8bbd 8c55 0ebe 7a0b 073e
00000310: 8e1d 263c 6493 933c 182f 943d ba34 b53b
00000320: 1b0d ffbc 62e8 723d 18f1 543d 3405 e6bd
00000330: b808 e6bd 7736 54bd f093 d73d 464c 69bd
00000340: c39b a3bc 9176 e73c b68a b73d 85eb d73d
00000350: 1b0e e3bd 2b22 fd3d 15da aebd 17b2 6dbd
00000360: 3cce fabd d4cd 063d 360a b53d 30ba 7abb
00000370: 0384 1d3e 59a7 85bd 5550 a1bd 742e 933d
00000380: e32d 80bd d8ae 173d 0c1f 83bd 2a42 e93d
00000390: 5f7b db3d 86e7 2a3d 21cd f33d 044e 1cbe
000003a0: deb6 743c 7f67 c0bd 3f98 003e b722 0bbe
000003b0: e56e b7bc b048 a2bb 4535 08be 6b0a 8d3d
000003c0: 6efc 9bbd 7cdf 43bd a7b3 823c 3648 cebb
000003d0: 4939 073c aaad c7bd 43aa b3bd cf1a 913d
000003e0: 6690 2ebd 19e1 09be 472a 753d e3a6 68bc
000003f0: ba05 46bd 3b2f 193e 4f26 0a3e 4819 d0bd
-0.20177092 0.04008492 0.045850273 -0.066795245 0.0049493005 -0.12688743 -0.26673543 0.0039773313
0.14089136 0.17495884 0.04506122 0.21707311 -0.017551012 -0.09732781 0.040491376 -0.10226144
0.17901276 -0.033397507 -0.11942097 0.08494596 -0.24998453 0.30359372 0.0553308 0.2652289
0.3122153 0.112728216 -0.10753336 0.19636247 0.21586898 -0.07492392 0.10464298 0.04212648
-0.1615903 -0.015806355 -0.07006828 -0.11677968 -0.22811782 0.4299117 0.109004125 0.15938145
0.4550103 -0.20732975 0.18679845 0.0771497 -0.2781931 -0.10531718 -0.017317181 0.07573215
0.040879596 0.183109 0.0034276145 0.076316185 -0.08550904 0.04211486 0.01845604 -0.092298284
-0.001965998 -0.08903687 -0.10415109 -0.009365275 -0.14397171 0.108789586 0.12736338 -0.09858959
0.10384778 0.04714987 0.10516925 -0.038049333 -0.013282862 0.046595037 -0.028462857 -0.06246653
-0.04597236 0.091223545 -0.1149009 0.04173549 -0.054357134 0.10383246 -0.13286163 -0.077709876
0.11299581 -0.025088258 0.10900154 0.05530139 0.031596787 -0.105244964 -0.09794886 -0.12213113
-0.06598414 -0.060063332 0.023629794 -0.034053814 -0.05309751 0.058198895 -0.05955512 0.059490364
0.013208574 0.041120294 0.026674692 -0.0042396425 -0.08516002 0.15819883 -0.056415673 -0.13728656
-0.063047804 -0.030853454 0.0799045 -0.027360843 -0.093586326 -0.12803034 -0.14270976 -0.062406767
0.15253353 -0.09260767 -0.065702766 -0.06066108 -0.01778051 -0.09425053 -0.07526124 -0.09775694
-0.040843412 0.14342178 0.09622371 -0.07476304 0.0835775 0.01498254 -0.09946243 -0.15045469
0.15169862 -0.12773328 0.025942508 0.0035120873 -0.14468518 -0.10204376 0.08579068 -0.09831292
-0.045768965 0.22059478 0.13457464 -0.116861574 0.14078566 -0.08498707 -0.0825437 -0.10069753
0.0063133133 0.053964887 -0.118333906 0.10972789 0.018998664 -0.070748724 -0.10740574 0.12445727
0.00084947003 0.020262947 -0.0036399637 -0.09424848 -0.10614571 -0.12092474 0.07304388 -0.06515138
-0.02040845 -0.05214179 0.14160764 -0.1033902 -0.03743784 -0.06490149 -0.10359305 -0.08232547
-0.054589197 0.021503886 -0.049367476 -0.024012746 0.09427346 -0.12068259 -0.01958321 0.08307366
-0.0878461 -0.13342209 -0.13891837 -0.08007655 0.039528 0.011536802 0.049233433 0.14937387
0.06501266 -0.059831694 -0.0010570106 0.013845729 -0.033029404 -0.10269322 0.061278194 0.00802506
0.07078086 -0.06817511 -0.13899821 0.13187972 0.010138882 0.018014617 0.07235545 0.005529967
-0.031134179 0.05930365 0.051987737 -0.11231461 -0.11232132 -0.051809754 0.10526264 -0.056957506
-0.019971734 0.028254779 0.08962004 0.10542969 -0.11086675 0.12360033 -0.085376896 -0.058031168
-0.12246367 0.032911137 0.08839838 -0.003825795 0.1538239 -0.0652606 -0.0787665 0.071865946
-0.06258752 0.03703198 -0.06402406 0.11389573 0.107168905 0.041724704 0.119043596 -0.15264136
0.014936177 -0.0939474 0.12558077 -0.13587461 -0.022391746 -0.0049525127 -0.1330157 0.06886753
-0.076165065 -0.047820553 0.015954806 -0.0062952293 0.008253404 -0.09749921 -0.08772709 0.070851915
-0.042618178 -0.13464774 0.059854772 -0.014199945 -0.048345305 0.14959423 0.13491176 -0.10161072

2.bias f4 [10]
00000000: 91b3 8abd a613 6f3d 95c2 fd3d ab0b feb9
00000010: d7f5 1a3e ae2f bc3d d7e4 96bd 0f0c 053f
00000020: a003 bbbd 6259 573d
-0.06772531 0.058368348 0.12390629 -0.0004845535 0.15132843 0.09188782 -0.073678665 0.51971525
-0.09131551 0.052575476

4.weight f4 [10, 10]
00000000: 806f 853b 7bc7 90be eb02 823e 2c4c 9abe
00000010: 782c 573d 8451 05be e028 9ebe 8ec3 e3bd
00000020: 30ca 27be ca88 6e3e 8482 40be 8026 70bc
00000030: b455 f6bd adb3 3cbe 40f3 c13c 3e7a 423e
00000040: 387e 273d 0088 653c a82c 0cbe 400b 6abe
00000050: d003 943d 6fb8 973e d3ea 1dbe 1b16 853e
00000060: 9a9c 1a3d 1211 51bc 0795 853e 90b1 e43d
00000070: bf7b 91bd e41f 2a3e 8e00 00bd 42f7 abbd
00000080: 9d14 823e 9c40 b13d cefb b63c ab20 323e
00000090: b8c7 60bc a8a2 7bbe 6c9d 23bd 4d15 8ebc
000000a0: 6fcb 8d3c e679 2d3e 25a3 183e c298 733e
000000b0: 678c 59bc 0c1f 9abe a611 9e3e 7506 e93b
000000c0: 5af5 bf3d f19d 143e 9ca3 5f3e 0be9 823d
000000d0: 405d e33d 87b1 263e c0b8 903e b046 94be
000000e0: 1afc 5cbe 0244 0dbd 6b80 73be 41bd a43d
000000f0: e4ee ddbe 1c0a 4c3e 2698 38be 9e01 8f3e
00000100: 3254 0ebe ca40 343e df4f 87be f9be 0a3f
00000110: d98d 16be f34e c93e 2570 cebd 0c2e cdbc
00000120: 1497 65be b856 5bbe 7e8e 033e 5c91 36be
00000130: 877e 413e 3418 443e c299 533d ebce dfbd
00000140: 614c 01be d5db 39be b9c7 1fbe 0025 a4bd
00000150: 0e36 293e f1f7 5d3e fed6 563e d1c2 eb3e
00000160: 89a7 343d 7a40 c73d 1b74 873f f5e0 353e
00000170: 5128 af3e 58a5 86be 27ab a2be e933 083e
00000180: b322 3b3c 4aa0 00bf 08a9 3d3f 3bf8 36bb
0.0040721297 -0.28277192 0.2539285 -0.3013624 0.052532643 -0.13019377 -0.3089056 -0.111212835
-0.16385722 0.23294368 -0.18799788 -0.014657617 -0.12028065 -0.18427916 0.023675561 0.18991944
0.040891856 0.014009476 -0.1368891 -0.22855854 0.0722729 0.296329 -0.1542161 0.25993428
0.037747003 -0.012760418 0.2609026 0.1116668 -0.07103681 0.16613728 -0.03125053 -0.0839677
0.25406352 0.086549014 0.022336867 0.17395274 -0.013719492 -0.24573767 -0.03994505 -0.017344141
0.017308919 0.16941032 0.14905985 0.23788741 -0.013278103 -0.30101812 0.3087284 0.0071113654
0.09372969 0.14513375 0.21839756 0.06392106 0.111017704 0.16278659 0.28265953 -0.2896018
-0.21580544 -0.034488685 -0.23779456 0.0804391 -0.43346322 0.19925731 -0.1802679 0.2793092
-0.13899305 0.1760284 -0.26428124 0.5419765 -0.14702548 0.39318046 -0.100799836 -0.02504637
-0.22420913 -0.214198 0.12847325 -0.17828888 0.18895923 0.19149858 0.051660307 -0.10928138
-0.12626792 -0.18150266 -0.15603532 -0.0801487 0.16524526 0.21676613 0.2098045 0.4604707
0.044105086 0.09729095 1.0582308 0.17761596 0.34210446 -0.26298022 -0.31771204 0.13301052
0.011421847 -0.5024458 0.74086046 -0.0027918953

4.bias f4 [10]
00000000: 650b 96be 16b4 67be 6250 55be 0bb6 aabd
00000010: b375 07be 38bf 84be f493 4b3f fe5c 76be
00000020: 888d ae3e b170 dcbd
-0.29305568 -0.22627291 -0.20831445 -0.08335503 -0.13228492 -0.25927138 0.79522634 -0.24058911
0.34092355 -0.10763682

6.weight f4 [2, 10]
00000000: 809c 6fbc c871 63bd ea81 51be b3ad a0be
00000010: 708b 613e 35b1 253c 979b 223f 4e93 0b3e
00000020: 3037 213f 9ea3 6dbf 186a 50be a038 90bc
00000030: e708 e6bd 09e5 64be f050 7cbe 57d3 9abe
00000040: e1f5 5fbf 7c88 213c 7844 10be 3baf 823f
-0.014624715 -0.055528432 -0.20459715 -0.31382522 0.22025847 0.01011305 0.6351866 0.13630411
0.62974834 -0.92827785 -0.20352972 -0.017605126 -0.11232167 -0.22352995 -0.2464025 -0.30239365
-0.87484556 0.009859201 -0.14088619 1.0209726

6.bias f4 [2]
00000000: 0886 9d3f 4a81 ddbf
1.2306528 -1.7305081
